basic/lightning_logs/version_1/checkpoints/epoch=50-step=13770.ckpt (torch, 140879 bytes, 15 tensors)

model.0.weight f4 [100, 5]
00000000: 0648 103f 94e0 c23e f9a6 da3d e54f f0be
00000010: 4405 a5be cc01 fc3e 949b 7fbe 39e0 dfbe
00000020: 2852 23be 44fa 873d f38f 01be 979b 873f
00000030: ac9e 5fbe e4c3 7e3e 0cb9 e6bd 42c7 943e
00000040: 3d8f 1ebf 364e cd3d 887d df3b 10cc c63d
00000050: 3e06 71bd 1218 5bbf f5ad 1b3e 087d ccbe
00000060: ddea 05be 504a bb3e a3ba f9be dd6e 87bc
00000070: 55c2 3e3d 1999 07be ae3c 433d 13fe 893e
00000080: 9e95 24be ee37 96be 017b e1be 472b 123f
00000090: 2e08 9d3d 6362 a73e 21e0 273e 3db4 473e
000000a0: ad39 1bbe d70f c4bd f68e 043e 6b21 83be
000000b0: fa67 11bf 05ae 8abe 7834 a53e 92db 6cbe
000000c0: 0e18 103f 147a b9bc e042 19be 9171 583d
000000d0: 8e2c 1e3f a90a 183f 1b92 a13c 678b 98be
000000e0: 628d e73e 5f45 c6be d120 3e3e a68f d03d
000000f0: 1e9a bb3d abe6 04bf 9f6f a2bc ad93 00be
00000100: 6b9e eebd 47cb 263f 6d3f 88be 7afe 1c3f
00000110: d166 bc3e d2f6 5bbe 1e35 dc3c 4c13 193e
00000120: 0754 9e3d 7e59 d03e b184 01bf 08e3 603d
00000130: 199b 6dbe 5676 e4be be07 7c3e f86b b33e
00000140: 4759 ae3d c5b4 e1be 323d 293e 1d14 283e
00000150: 245f c33e 1507 5bbe ac51 a9be 1424 033f
00000160: 65cd 24be 835b dc3d 217b 3a3d c024 19bc
00000170: 8112 26be 6fb2 c33d 9072 b43e 3cca d63c
00000180: d23d 94bf e0f1 22bd 8d97 bbbe 500c 173d
00000190: dfca 87bd 476b 9f3d 56a5 093d 92a0 0a3f
000001a0: e28e 973e cfec d73e 4fca 023f adec 61be
000001b0: 4786 853e 9333 203d bd83 b2bb 29d2 ebbe
000001c0: c744 e4bd 9f44 1c3e 85ef 773d e30e e13e
000001d0: 75e5 183e 9438 d8be d7ba d0bc d920 8abe
000001e0: c46a 7a3e e354 7fbc 0851 d2be a4a5 2e3e
000001f0: 2a91 9ebd 6bf2 6abe 0d10 403f 6cda a53d
00000200: 4266 aabe 2932 13bd ee00 adbd 070d ebbe
00000210: 1532 ee3d 6309 0a3f 530a c43b 2bc8 8c3e
00000220: 07bd febe 80db 373c 6d85 69be 3666 a03d
00000230: ef4a 93be 234e 08bf 1aa5 113f 5463 173e
00000240: 1cb3 103e 9e08 27be 7bff 473f 1758 c73c
00000250: 124e 303e 59be 783d 88f8 58be 2898 38be
00000260: 30c9 c93d 12f7 193f 1c1e cf3c fc3a c53d
00000270: f0cb 16be e08d cbbe 1dbb 983e 5d9f b23e
00000280: 3f43 c8be 5b34 363f 608c 003f 633a 1a3e
00000290: fe8a 45bd 96df 61be 57a3 bfbe 8ddd 35be
000002a0: 8006 f73d 3304 abbe 5410 b33e 80b0 e73d
000002b0: 2101 833e 198b 6c3e 0688 753d 07d0 99be
000002c0: ed90 c2bd 551d fc3e 63f9 77bc ab26 093f
000002d0: 15e0 edbd da72 eabe 8a9e f93d cdd1 1cbb
000002e0: 833c df3e 60fa 40be de56 813e 29ab 813e
000002f0: a670 2fbe f19d 483d cfe3 2a3e 3199 a53e
00000300: d2cc 8ebd ad20 b4be d940 e23d 3c11 273e
00000310: 4bcd a03e b3d7 c0be 149f 0cbf 73a2 713d
00000320: ea47 513f 9816 4d3f ab2e aabd cabe 1abd
00000330: 82c8 693d 7c65 7a3d 0a8e 0cbf 6043 7e3e
00000340: 2ff0 363d ccab ecbd 70a0 a83e 51e3 30bb
00000350: 68cf 873d 17f0 f23c 70cc 853e 0e14 d7bc
00000360: 1169 903e cc99 70be b343 18be 2f91 02bc
00000370: 6000 02be 3547 aa3e 7338 503e dfa5 49be
00000380: b17e 9d3e 9adc a6bd 48ab dabe 614a 203e
00000390: ead7 af3e ca44 f9be 6ed7 1f3e 2881 c63d
000003a0: 62b4 803c 1a1e 4ebe 1adb f63e 528b 52be
000003b0: 05bb 13bc 59f1 003f bf15 72be 707e d43e
000003c0: f7d3 573d f803 003f 4141 3ebe 93c1 ebbe
000003d0: 7131 d2be 6127 acbc b5c1 4fbe 0cd1 49be
000003e0: c147 983e a8d5 59be 7d05 b5be 500b ef3d
000003f0: 9d9c a9be 369d 353e 9430 733e b684 98be
0.563599 0.38061965 0.10676379 -0.46935955 -0.3223058 0.4922012 -0.24961692 -0.43725756
-0.15949309 0.06639531 -0.12652569 1.0594357 -0.21837872 0.24879414 -0.11265764 0.29058272
-0.61937314 0.10024683 0.0068203844 0.097068906 -0.058843844 -0.85583603 0.15203078 -0.3993914
-0.13077874 0.36580133 -0.48775205 -0.016532356 0.04657205 -0.13241996 0.04766529 0.26951656
-0.160727 -0.29339546 -0.44039157 0.57097286 0.07667576 0.3269225 0.16394092 0.19502349
-0.1515872 -0.09573334 0.1294516 -0.25611433 -0.5679928 -0.2708589 0.32266593 -0.23130634
0.56286705 -0.02264122 -0.14966917 0.05284268 0.61786735 0.59391266 0.019722989 -0.29793856
0.45225054 -0.387248 0.18567206 0.10183649 0.09160255 -0.5191447 -0.019828616 -0.12556334
-0.116513096 0.65153927 -0.2661089 0.613258 0.36797193 -0.21480873 0.026880797 0.14948767
0.07730871 0.40693277 -0.50593096 0.054904014 -0.23203696 -0.44621533 0.24612328 0.3504331
0.08513122 -0.4408323 0.1652725 0.16413923 0.38158524 -0.2138942 -0.33070123 0.51226926
-0.16093977 0.10759642 0.04552758 -0.009347141 -0.16217996 0.09555518 0.35243654 0.02621948
-1.1581366 -0.03978145 -0.36639062 0.036876976 -0.066304915 0.077841334 0.033604942 0.5415126
0.29601198 0.42172858 0.5108995 -0.22062941 0.26079008 0.039111685 -0.0054478333 -0.46058777
-0.11145931 0.15260552 0.060531158 0.4395667 0.14931281 -0.42230666 -0.025479717 -0.26978186
0.2445479 -0.015584203 -0.41077447 0.17055374 -0.077425316 -0.22944038 0.7502449 0.08098301
-0.33281142 -0.03593651 -0.08447443 -0.45908377 0.11630646 0.53920573 0.005982676 0.27496466
-0.4975359 0.0112217665 -0.22804804 0.07831995 -0.28768107 -0.5324423 0.5689255 0.14783984
0.14130825 -0.16311881 0.7812421 0.024333997 0.17217281 0.060728405 -0.21188557 -0.18026793
0.098528266 0.60142624 0.025282912 0.09630391 -0.14726233 -0.3975668 0.29830256 0.3488721
-0.39113805 0.7117364 0.50214195 0.15061335 -0.048228256 -0.22057948 -0.37429306 -0.17760296
0.12061787 -0.3340164 0.34973395 0.113129616 0.255868 0.23099937 0.059944175 -0.30041525
-0.09500299 0.4924113 -0.015135142 0.5357463 -0.11615006 -0.4579075 0.12188442 -0.0023928762
0.43600854 -0.1884551 0.25261587 0.25325897 -0.17132816 0.04897875 0.16688465 0.32343438
-0.0697266 -0.3518118 0.11047525 0.16315168 0.31406626 -0.37664565 -0.54930234 0.058992814
0.8175036 0.801126 -0.083096825 -0.037779607 0.057075985 0.06113194 -0.54904234 0.24830389
0.04466265 -0.11556205 0.32934904 -0.002699096 0.066313565 0.0296555 0.26132536 -0.02625468
0.2820516 -0.23496169 -0.14869575 -0.007969185 -0.12695456 0.33257452 0.20334034 -0.19692181
0.3076072 -0.08147545 -0.42708802 0.15653373 0.34344417 -0.48685294 0.15609524 0.09692603
0.015711013 -0.2012867 0.48214036 -0.20560959 -0.009016757 0.5036827 -0.23641108 0.41502714
0.05269238 0.50006056 -0.1857958 -0.46046123 -0.41053346 -0.021014871 -0.20288737 -0.19708651
0.29742244 -0.2127291 -0.3535575 0.116720796 -0.331273 0.17735752 0.23749 -0.2978875

model.0.bias f4 [100]
00000000: 31cc e1bc ae18 b8bd 1c58 dbbe 2523 d73e
00000010: 04df 933e ddf0 c73e 372e 90be 06c7 113f
00000020: cb76 ccbe 2858 c9be 8184 633d 25dc d53e
00000030: 5fe9 90be 8d1b 473e cac5 063e a147 a9bc
00000040: 1167 bbbe 0362 afbd 90de e1be 7367 a83d
00000050: b971 35be f338 d73d 82b4 0dbf 4439 3ebc
00000060: a0f7 2a3e 71c9 3a3b 8e34 75be e3c8 88be
00000070: b0c1 123d 611d a73e cf75 bd3d 878d e23e
00000080: 5703 193e 19bd 583e 6576 1b3f 77c7 81be
00000090: 09ee 8fbe d986 273f 9ba1 e23e 0404 af3e
000000a0: bb27 1f3d 6fab 09bf 58dd e83e 451b af3e
000000b0: 398e 513d 4eb3 acbe f78b aebe efba b73e
000000c0: 6468 973e a0de 15be c6b6 143e 4a7a 27be
000000d0: 3970 9ebe 40bc a63e f5c8 8a3e 5dec 53be
000000e0: efa7 f5be e867 d6bd b2ad debe 59d2 5b3d
000000f0: f228 f83e 6f3d 46be a120 0c3d efb0 01bf
00000100: 1a13 3bbf 85b1 a93e 9607 b33e 856c abbd
00000110: ad2e 1f3e d139 07bf 2a46 4ebf 4701 a1be
00000120: cdc7 1fbf 43c9 48bf db8b a1be 0121 2abf
00000130: c108 c4bd 4f1f 393e 49ed b7bd fafd 78be
00000140: 07e1 843e 9024 02bf 1c98 d5be f5e3 97be
00000150: a1f4 653e 9a98 283f cc87 5bbd 1c0f cbbe
00000160: 06f3 933e 30e2 bb3e 0506 24be acef 64be
00000170: 9450 82be 0c28 a33e 7200 1ebf 39bc c9bc
00000180: 1c5e 51bd 9f45 2cbe 01e3 f33d 4410 1cbf
-0.027563186 -0.08989082 -0.4284066 0.42019 0.28881085 0.39050952 -0.2816026 0.5694431
-0.39934382 -0.3932507 0.055546287 0.4176952 -0.28303048 0.19444104 0.13161388 -0.020664038
-0.3660207 -0.08563616 -0.44115114 0.082228564 -0.17719163 0.10508909 -0.5535356 -0.011610333
0.16696024 0.0028501416 -0.2394583 -0.26715764 0.035829246 0.32639602 0.09250986 0.44248602
0.1494268 0.21165885 0.6072753 -0.25347492 -0.28111294 0.65440136 0.4426392 0.3418275
0.03885625 -0.5377721 0.45481372 0.34200493 0.051161025 -0.3373055 -0.3409116 0.35884807
0.2957183 -0.14635706 0.14522848 -0.16355243 -0.30944994 0.32565498 0.27106443 -0.20695634
-0.47979686 -0.10469037 -0.43491894 0.0536674 0.4846874 -0.19359373 0.034210805 -0.50660604
-0.7307602 0.3314325 0.34966725 -0.08370308 0.15545149 -0.52822596 -0.8057581 -0.31446287
-0.62414247 -0.784321 -0.31552014 -0.6645661 -0.09571982 0.1807835 -0.089808054 -0.24315634
0.25952932 -0.5083704 -0.41717613 -0.29666105 0.224566 0.6585785 -0.053596303 -0.39659965
0.2889635 0.36696005 -0.16017921 -0.22357053 -0.254521 0.3186649 -0.6171943 -0.024625884
-0.05111514 -0.16823433 0.11908532 -0.6096232

model.2.weight f4 [100, 100]
00000000: f917 edbe 6e23 a23d 634d 783e 2580 28bd
00000010: b79a 4abd 4d38 b4bb 05d0 993d 303b b9be
00000020: 762a 8cbe d626 b33d 67b3 5cbf 6aac 653d
00000030: 503e 393e 0d53 86be 4ba5 143e 76eb 7abd
00000040: 34b7 223c 6d02 12bf 32b5 6e3e 479d 0ebe
00000050: 9446 e3be 1224 6ebd 8b2c 3bbe a66e 333e
00000060: c3ca e93d cc01 52bc 4088 b0bd 6f8c 1b3e
00000070: 133f 17bf 3508 343e 474e dbbb f03a 043e
00000080: 0454 833e 9a79 1c3d c0ed d1bd c741 17be
00000090: a153 aabe 3d86 cfbc e19a 8f3c 2a23 d9bc
000000a0: d48d 84be 6483 073f 5c1a f2bd 1a72 b23d
000000b0: 0544 c53d dfdd 013e afb7 fd3d 63c8 063e
000000c0: 00d5 a33b 31d3 053e 9be6 7ebd 994f 0ebe
000000d0: 1b25 b23d dee0 66bd 327a 6f3d bd78 fb3d
000000e0: 0b54 1e3e 5750 9dbe 943a 0f3e dd3e 37be
000000f0: b933 d73c 9c4c c0bb 07ca 563e 84fe 943e
00000100: deea 6dbe 549c a63b 5908 cfbc 5eb0 513e
00000110: 6a07 f6bd cef5 97bf 53c6 b2be ea9e 323c
00000120: 747a 703e f15e c3be 567f d83d bb15 e83d
00000130: e028 8c3d 489c c0bd c13c 243e 064f 373b
00000140: 2ce5 8e3c 4452 81bf 26df 26bf 476d 8fbe
00000150: 7dbf e5bc b6f3 ea3c e457 b13c 0183 603e
00000160: 6e1b 43be 4ffd fe3d 576a 88bd df78 cc3b
00000170: d9ab 34be 664b c93d 3fa6 30bf 7995 06bd
00000180: 3561 5c3e 7217 95be 16bc 083e 36da 90be
00000190: ca15 62bd 5f66 903d 7dac c3bd 9a65 61bb
000001a0: ba9e b1bd bbb9 aabd 275f e2bc d0c1 aebd
000001b0: 0711 d93c 8d66 12bc 028c bfbd 20a9 a6bc
000001c0: 90aa 5dbd a0fa 71bd 67fe 533b e7d4 56bd
000001d0: 9aa0 c2bb 9a0f 9f3b 6dc4 fcbc a075 02bd
000001e0: b563 aabd 1078 923d a7fa c33d c5cc a0bd
000001f0: 33ec 4e3c 130f 923c 4d61 8e3c 27b9 9f3d
00000200: a715 21bc 4789 d7bc 53fe fa3c 5533 acbd
00000210: 27ce bb3c 3ab3 5e3d b72c 9a3d 2d90 8b3d
00000220: 9a08 8bbb 0dce 50bc dd73 0f3d 6d76 93bd
00000230: 4591 b0bd 508f 943d 6a9c a33d a765 b6bd
00000240: 5843 c7bd 0d51 253d 8023 bc3b 67a2 be3a
00000250: f8a1 9fbd 731e 233c 471b 94bc f357 a1bd
00000260: d28f a4bd d329 a8bc 9a7b 3e3b 3d06 39bd
00000270: da7f 26bd 9a0b 61bd 9a3b 863d 7b9f b8bd
00000280: e0ba 90bd 9734 b23d 336a 973c da00 00bd
00000290: 6d69 a6bd 7d58 93bd 531f 86bc 5305 5f3d
000002a0: 9da9 ad3d 07fb d13c b3cc 643c da09 2cbd
000002b0: 8843 803d 4f0f 97bd a839 93bd 1dc1 c8bd
000002c0: 3a7a 0b3d 2da2 f7bc 5374 b3bd 8da1 c6bc
000002d0: e55a 8e3d 8356 69bd 800c ad3c 47c3 763d
000002e0: 3336 13bb 9330 8ebc 0a90 663d 1a70 903b
000002f0: 8393 943d 85c8 bebd 6a42 1bbd 6d83 2bbd
00000300: ad83 70bd f7cb 08bd 9370 d7bc ed30 133d
00000310: 1a6e c13d f342 9dbd 277c cabd 0d16 01bd
00000320: 380e d23d fc01 113d 399e 093e 8f2c 783d
00000330: 4e9f d4bc 21f8 4f3d b9be 93bc 9b88 2bbe
00000340: 612f f7bd b7ac 9dbb cbb8 99be c2c9 c23b
00000350: 5c69 5cbe a096 4d3d b2d9 ed3b c4ac 923d
00000360: dc58 b0be d68b 2cbf c9cb 123d 6f7d 003e
00000370: 7359 afbe ded7 bd3d 6802 703e 4840 323d
00000380: 328e 873d 621f cbbd 8fd1 873a 4db3 6ebe
00000390: 10b3 d8bd a58e 55bd 55dc 023e 9ac5 863d
000003a0: 0ece 86bc 6435 0d3e b3e2 36be c2a9 9ebe
000003b0: d4bc f4be 7a2b 5fbd 53b5 f4bc 4001 d73d
000003c0: d51a c33d 696c 19be 8254 87bd 937d ee3d
000003d0: 540e 52be 0809 953d 5cf8 e63a 101e ffbe
000003e0: 4b57 683d 9a96 cb3d 084b 733d 202b 5d3c
000003f0: e29e 65be e622 89bd 354d 15bc c099 2c3d
-0.46307352 0.07916914 0.2424827 -0.041137833 -0.049463954 -0.0054998756 0.0751038 -0.3617797
-0.27376145 0.08747642 -0.86211246 0.05607263 0.18090177 -0.26235238 0.1451618 -0.06125971
0.009931374 -0.5703495 0.23311308 -0.13927184 -0.44389784 -0.058139868 -0.1827871 0.17522678
0.11415627 -0.012817811 -0.086197376 0.1519029 -0.5908062 0.17581256 -0.006692681 0.12913108
0.25650036 0.038201906 -0.10250425 -0.14771186 -0.3326693 -0.025332564 0.017529907 -0.026506025
-0.25889456 0.5293486 -0.11821434 0.087131694 0.09632114 0.12682293 0.123885505 0.13162379
0.004999757 0.13068844 -0.06223164 -0.13897552 0.086984836 -0.056366794 0.058466144 0.122788884
0.15461747 -0.30725357 0.1398719 -0.17895074 0.02626978 -0.0058685075 0.20975505 0.2910043
-0.23234126 0.0050845537 -0.025272535 0.20477435 -0.12013133 -1.1871889 -0.34916934 0.010902146
0.23484212 -0.38158372 0.105711624 0.1133227 0.06843734 -0.09404808 0.16038801 0.0027970686
0.017443262 -1.010323 -0.6518425 -0.2801306 -0.02804541 0.028680664 0.021648355 0.21924974
-0.19053432 0.124506585 -0.06660908 0.006239995 -0.1764368 0.09828834 -0.6900367 -0.032857392
0.21521457 -0.2911945 0.13352999 -0.28291482 -0.05519656 0.07050776 -0.09554384 -0.0034392835
-0.08672853 -0.083362065 -0.027633263 -0.085330606 0.026497377 -0.008935583 -0.09352876 -0.020344317
-0.05411774 -0.059076905 0.003234768 -0.052449133 -0.0059395554 0.004854155 -0.030855382 -0.031850457
-0.08319799 0.07151806 0.095692925 -0.07851557 0.0126295565 0.017829454 0.017380381 0.07798987
-0.0098318225 -0.026310576 0.03063885 -0.08408228 0.02292545 0.054370143 0.0752806 0.06814609
-0.0042429687 -0.012744439 0.035022605 -0.07200322 -0.08621458 0.07253897 0.07988818 -0.089061074
-0.09729642 0.0403605 0.0057415366 0.0014544249 -0.07794565 0.00995599 -0.018079413 -0.07878103
-0.08035244 -0.020527756 0.0029065371 -0.045171965 -0.040649273 -0.054942705 0.06554337 -0.090147935
-0.070668936 0.08701437 0.018483257 -0.031250812 -0.08125577 -0.07194612 -0.016372358 0.054448437
0.08479617 0.025632394 0.01396482 -0.042001583 0.062628806 -0.07375967 -0.071887314 -0.098024584
0.03405211 -0.030228699 -0.087624215 -0.024246955 0.069509305 -0.05696727 0.021124125 0.060244825
-0.0022462725 -0.017357146 0.05628971 0.004407895 0.07254698 -0.0931559 -0.037905134 -0.041873384
-0.058719326 -0.03339764 -0.026298797 0.03593533 0.09444828 -0.07678785 -0.098869614 -0.03151517
0.10256618 0.035402283 0.13439263 0.06058937 -0.025954869 0.050773744 -0.01803528 -0.1675133
-0.12069584 -0.004811849 -0.30023798 0.0059444616 -0.21524566 0.050192475 0.0072586173 0.07161859
-0.34442794 -0.6740087 0.035838876 0.12547849 -0.34247932 0.09269689 0.23438418 0.043518335
0.066189185 -0.09918095 0.0010362136 -0.23310585 -0.105810285 -0.05213799 0.12779362 0.06580658
-0.016455676 0.13789898 -0.17859916 -0.3098889 -0.47800314 -0.05448482 -0.029871618 0.10498285
0.09526602 -0.14982761 -0.066079155 0.11645045 -0.20513278 0.07277113 0.0017621624 -0.49827623
0.056723874 0.09940834 0.059397727 0.013499051 -0.2242389 -0.066961095 -0.009112646 0.042138815

model.2.bias f4 [100]
00000000: b040 083d 079f 4a3d a989 383d a755 bdbd
00000010: faef d9bd ce06 083e ae87 d1bd b2e0 573d
00000020: b0ab e43d bfea cabc 53e7 933d 2bed a6be
00000030: 32f5 2c3e ea19 b33d c92e 3f3e e3bf 083e
00000040: 7bbb c83d 3a0f fc3d 1b86 c43c fce1 4f3d
00000050: b351 84be 05c4 603d 900b ac3d 044f a03d
00000060: b838 0d3d a20e d6bc db70 553d 35af 753d
00000070: c80c 9d3d c09c 5cbe 32cc 17be 6b35 05bd
00000080: 8522 d63c 102b c83d b886 c13d 38aa 303e
00000090: e9a8 3d3e 5983 ae3b 9bc5 5dbd fc4c ff3d
000000a0: dd44 9a3d c4ed 60bd 3e28 2bbe 0cb5 023e
000000b0: dc81 31be 17b2 da3d e287 383b 22ab 1b3d
000000c0: 2ebb debd 0fb6 a43d f253 273d 669b 5ebc
000000d0: f148 a13c 60bb 5d3d 6ca9 a8bd a90d bdbb
000000e0: 6f59 cd3d ce1b 93bd ecc2 21be 961b e2bd
000000f0: 7c0c 5bba 476e 263e 9745 433d b3a0 45bd
00000100: f921 663d 27e3 13be da4a 2f3d 5869 ce3d
00000110: eca9 083e 0d12 843d bfff 783e 7a46 003d
00000120: 57a5 d13d 688c 1a3e ecd6 2dbd f0a8 e23d
00000130: 3804 213e 4145 4abd ebd3 dfbc 8b62 463c
00000140: 8d05 223e 04c7 83bc 9cf4 a1bd 127d 0a3d
00000150: 749b 073c ed72 e9bd a1a0 2cbd 0a21 bfbd
00000160: 2ac4 4dbd e96e 52be f703 103b f2ab 48be
00000170: db14 0cbe 2429 a0bb 1fba f43c 0bbd 31be
00000180: b71b 4d3c cf88 3bbd eb36 5abd ce16 453d
0.033264816 0.049468067 0.045053158 -0.092448525 -0.10641475 0.13283846 -0.10230957 0.05270452
0.11165559 -0.024770139 0.07221856 -0.3260282 0.1689041 0.08745177 0.18670191 0.13354449
0.09801384 0.12307592 0.023989728 0.050752625 -0.25843582 0.05487444 0.08400643 0.07827571
0.03447792 -0.026130024 0.05210958 0.059981544 0.076684535 -0.2154417 -0.14823988 -0.032521646
0.026139507 0.097738385 0.09449524 0.17252433 0.18521465 0.0053257165 -0.05414353 0.124658555
0.07532666 -0.05491425 -0.1671457 0.12764376 -0.17334694 0.10678499 0.0028157164 0.038005
-0.108755454 0.080425374 0.04085154 -0.013586855 0.019688101 0.054133773 -0.0823544 -0.0057694507
0.10026824 -0.07183038 -0.15797013 -0.11040418 -0.00083560473 0.16253005 0.047673788 -0.048248958
0.056184743 -0.1444212 0.042795993 0.100786865 0.1334607 0.064487554 0.2431631 0.03131721
0.10236614 0.15092623 -0.042441294 0.110673785 0.15724266 -0.049382452 -0.02732273 0.012108455
0.1582243 -0.016086109 -0.07907984 0.033810683 0.008276809 -0.113988735 -0.042145375 -0.093324736
-0.050235905 -0.20550121 0.002197502 -0.19596842 -0.1367983 -0.004887717 0.029873906 -0.1735727
0.012518815 -0.045784768 -0.05327503 0.04811745

model.4.weight f4 [1, 100]
00000000: 9f29 18bf 203d bd3c c2e1 3c3e b5b4 0b3e
00000010: 03b8 213f 3f98 23bf 4a9c 25bd 07df 8e3d
00000020: c64e e23e 507d 483d 8fb1 60be f021 883f
00000030: 8396 773e 75de 743e 901a a53e 828b 883e
00000040: 20e5 623e 6104 65bf ca2c 233e 04ef 04bc
00000050: 4b6b 88bf d903 f9bd 1bd9 07bc c27c 52bd
00000060: 90e7 abbd 9ecc b03e 585c 1cbe 69ab e0be
00000070: 25dc 3bbe 3a43 5b3f c67c 013f 82be 8a3e
00000080: 17a9 293e a634 d03e 99f4 6abe 3d5a 173e
00000090: 44ef 773e 265e f2be 1564 42be 0794 3a3e
000000a0: e306 153b a16b ec3d 5bbc 00bf 8a75 34be
000000b0: ea6c cdbe 6d6b 093e 91a7 febc d569 0bbe
000000c0: dac1 943d 2edd 87be aedd ab3e 162c 123f
000000d0: 7993 abbe d299 0e3e 70c9 68be bd14 20bf
000000e0: 96e1 a1bd 06c6 153f 1e87 313f b590 bebe
000000f0: 2660 2fbe a91b 443e b2a8 a93d 3cc0 11be
00000100: e568 dabd 073b 983e 258f 363e 94d5 113e
00000110: 78e3 313e 4a3e d0be 0684 dd3e ba64 e8bd
00000120: 7d6f 863e bd42 223e 6c42 1bbf bd18 093e
00000130: 8e70 3b3e a224 833e c5e6 abbd 061a 8f3d
00000140: 6a38 f7be 9858 1ebf 8055 453c a2d4 723d
00000150: 823b 7b3e d4b3 8abe f610 09bd ec96 b0be
00000160: 4dcf 94be f6ca 38bf 1cbe 003f 4f24 0fbf
00000170: 5035 de3e d5df e43b 6f9c 213f f553 a5bf
00000180: 6241 a53e f1bf 9dbe ca7a cfbd c8a9 8e3c
-0.5943851 0.023100436 0.18445495 0.13643153 0.63171405 -0.63904184 -0.040432252 0.06976133
0.44200724 0.048947632 -0.21942733 1.0635357 0.2417851 0.23912986 0.32246828 0.26668936
0.22157717 -0.89459807 0.15935054 -0.008113626 -1.0657743 -0.12158937 -0.008291508 -0.05138851
-0.083937764 0.3453111 -0.15269601 -0.43880776 -0.18345697 0.85649455 0.50581014 0.2709847
0.16568409 0.40665168 -0.22944869 0.14780517 0.24212366 -0.47337455 -0.18983491 0.1822053
0.00227397 0.11543966 -0.5028741 -0.17622963 -0.40122157 0.13419886 -0.031085761 -0.1361459
0.07263537 -0.26535934 0.33567566 0.5709852 -0.3351095 0.13925865 -0.22733092 -0.62531644
-0.07904355 0.58505285 0.693468 -0.37219778 -0.17126521 0.19151177 0.08284129 -0.14233488
-0.10664538 0.29732534 0.17828043 0.1424163 0.17371929 -0.40672523 0.43264788 -0.11347337
0.26256934 0.15845771 -0.60648227 0.13388343 0.18304655 0.25613886 -0.08393625 0.069873855
-0.48285228 -0.61853933 0.012044311 0.059284814 0.24534419 -0.27090323 -0.03346344 -0.34490144
-0.29064408 -0.72184694 0.50290084 -0.5591478 0.4340005 0.0069846907 0.63129324 -1.2916247
0.32276446 -0.30810502 -0.10130842 0.017414942

exp_avg f4 [100, 5]
00000000: abd8 b6b9 902f 6dba 030b cd3b b51e bf3b
00000010: cdd6 003c 366f a73a 825e c6bb 2226 e9ba
00000020: fda0 673b c7d1 f2bb 2fa0 83bb 544b b7bb
00000030: fc46 b13b c213 cbba f3a0 f2bb 5834 47b9
00000040: 4c1a 803b 441e 6ebc 3a9e 6cbc 32ef 173c
00000050: 5cea 33bb f6ee 73bb 9f54 813b d1ac 2f3c
00000060: cbf0 9bbb eb0d 893a 62fd 0dbc 11cc b2bb
00000070: 2f35 103c a5a6 febb 42d8 113c 26ef acbb
00000080: 62b8 bc3b 1874 79bc 3f8d 2d3c ba60 a83a
00000090: bf10 89bb 972b 85bb d6c2 cebb 4a31 443a
000000a0: b07d f7bb 8a62 dd3b 808f 3e3b 2f3a 90bc
000000b0: 2114 823c 4c1c 5d3a 48a2 00bb ecc7 ae3a
000000c0: e0c4 5aba d3fe 10bb 526c ad3a 06b4 98bb
000000d0: 01f6 283b 7a38 793a 7db6 083b a049 1039
000000e0: a550 e8bb 7332 a0bb c837 673b 2794 e1bb
000000f0: bafe 313b c9c2 843c 94d4 8a3c cce2 25bd
00000100: c6eb 8a3c cc78 c0b9 9aa0 c9ba 7898 7fb9
00000110: 3c0e a83b a71b 483a ef23 d33c ca68 693c
00000120: 9162 b73c 0a22 acbb f475 bc3c 4af5 133b
00000130: 5c35 e1b9 0d26 963b bc16 b13b fe20 27bb
00000140: 4f2e d5b9 7c30 733a cc01 4a3a dad4 bab9
00000150: b046 dfb8 e37f b9bc f9d1 18bc 80a6 46bc
00000160: 6af1 b2bc 23cf 9c3a 8b4e 34bc 382b c7ba
00000170: bc6c 36bb de71 833a 3072 e8b8 442b 3bbc
00000180: da04 a6bb 09f6 9b3b 95e0 113d 0fc6 7cbc
00000190: bbae e039 50c2 c5ba a93a 923b e4ad 863b
000001a0: 8f0c 213c 88a1 c7b7 e015 e538 9801 77ba
000001b0: bbf2 0b3b 9fc1 2abb 350b 713b 1edb 103c
000001c0: 016e 8e3b 84a5 573b 1566 373b abdc 3e3b
000001d0: c2a6 4dbc 67e1 f4bb 02bc 2e3c 096e 4dbc
000001e0: a071 0639 4838 9abb 0065 9536 48c0 3c3b
000001f0: 666b d7bb 5a60 1fbc e0b7 2fbb 68c7 e5bb
00000200: d84e 54bc d0ae 083c ba5a 613c 4872 663c
00000210: 9a5c 8b3c 9814 6dba 784a a43c 268d 79ba
00000220: d402 5c3c 42f0 933c 8f3b d2bc ec4c 5b3b
00000230: a6f8 8cbb 43d8 073b d5a1 9cba a485 f5ba
00000240: cc26 f6ba 9e07 79bc 7437 beba 5675 6bbc
00000250: a71c 9cbc 622f 8e3c 72f4 053b adcb 90bb
00000260: a2bd fdba 8af7 6b3b 2cb4 26bc 30e9 8c38
00000270: e459 58bb 68d6 28bb ed28 ee3b 0659 4abc
00000280: 5c7e 13bc eb8f aebb cf0a 55bb 4efb ffba
00000290: cc10 feba 3a24 c53b be8b e6b9 1ac7 f23b
000002a0: c50c 223b 3037 4bbb 0a59 0f3b 82ac 42bc
000002b0: 3250 51bc 03f4 2c3b 0a9b 3fbc b78c 9abc
000002c0: 2ad6 a6bb 1ced 15bc 7a81 87bb 1860 c139
000002d0: 95f3 89bc 9e53 a7bb bc20 01bc e896 02bc
000002e0: 08db f63b 87b7 7ebb e8a3 1aba e212 73ba
000002f0: 2e6c 1abb fea5 ab3a 6c45 9bba f29a 1ebb
00000300: a607 b7bb 3971 88bb fa7d 973b a6ab 8cbb
00000310: d0d3 9fb9 c0d3 cdb9 2a68 9eba 84fc 143c
00000320: 388e 5c3a 6c9d f839 4acc eb3a 10f2 183c
00000330: c6be 11bc 82bf 2ebc f6a2 623d 1ac5 0b3d
00000340: 10e3 cbbc 3892 413d ea46 123b d1ba 46bc
00000350: 7c4d 60bc bc54 7f3a fec2 f1bb b837 48ba
00000360: bae2 80bc b15e 40bc c20c ca39 0be0 24bc
00000370: ea1a 8dbb 8e2a b83a fed7 27bb a4fe 533b
00000380: be17 aaba 9641 1d3c d07d ba3c f2ca 9c3c
00000390: 66ec 25bc 8898 e73c dfe0 3d3a 60f3 fbba
000003a0: 2192 26bb cb36 0cbb 5e59 333a 1155 26bd
000003b0: 22e6 03bc adb2 c2bc 5afa 77bc 41de 063b
000003c0: b2ef 16bc 8090 a5b7 8feb 4fbc af1d c1bc
000003d0: dfc4 1c3c 135d b23b bc49 0ebb 867f 673b
000003e0: 20c0 ed38 9e54 953a 53d2 edb9 38fc ea39
000003f0: 7662 133b 5f04 873b bf33 16bb 9066 26bb
-0.00034875175 -0.000904792 0.006257416 0.005832518 0.0078637125 0.0012774232 -0.0060537467 -0.0017787854
0.003534376 -0.0074102613 -0.004016898 -0.0055936966 0.0054100733 -0.0015493559 -0.0074044405 -0.00018997618
0.003909385 -0.014533583 -0.014442021 0.009273337 -0.0027452921 -0.003722129 0.003946855 0.010722355
-0.0047589294 0.0010456418 -0.008666368 -0.0054564555 0.008801742 -0.0077713304 0.008901658 -0.005277532
0.005759285 -0.015225433 0.010592758 0.001284621 -0.0041829045 -0.004064034 -0.0063098473 0.0007484151
-0.007552825 0.0067561315 0.0029077232 -0.01760587 0.015878739 0.00084346975 -0.0019627977 0.0013334728
-0.00083453767 -0.0022124543 0.0013231135 -0.0046601323 0.0025781395 0.0009507012 0.0020860725 0.00013760338
-0.0070896917 -0.0048888265 0.003528105 -0.006884116 0.0027159886 0.016206162 0.016947068 -0.040499493
0.016958129 -0.00036711094 -0.0015382946 -0.00024375494 0.00512865 0.0007633515 0.02577397 0.014246175
0.022385867 -0.005253081 0.023005463 0.0022576624 -0.000429551 0.0045821727 0.0054043215 -0.0025501843
-0.00040661028 0.0009276939 0.0007705956 -0.0003563527 -0.00010646635 -0.022643989 -0.009327405 -0.012124658
-0.02184363 0.0011963587 -0.011005054 -0.0015195375 -0.0027835807 0.0010028442 -0.00011083891 -0.01142389
-0.0050664963 0.0047595543 0.03561457 -0.01542808 0.00042854794 -0.0015087817 0.0044625592 0.004110085
0.009829654 -2.3797867e-05 0.000109236455 -0.000942254 0.0021354395 -0.0026055349 0.0036780362 0.008841304
0.0043466096 0.0032905051 0.002798443 0.0029123228 -0.012551965 -0.007473159 0.010664942 -0.012538441
0.00012821564 -0.0047064163 4.452304e-06 0.0028801132 -0.006574082 -0.009727562 -0.002681248 -0.0070122965
-0.012958251 0.00834246 0.013754541 0.014065333 0.01701193 -0.0009043901 0.02005504 -0.0009519629
0.013428409 0.0180589 -0.025663165 0.0033462597 -0.004302102 0.0020728267 -0.0011950085 -0.0018731845
-0.0018779873 -0.01519957 -0.0014512376 -0.014371237 -0.019056631 0.017356578 0.002043989 -0.0044188113
-0.0019358883 0.00360057 -0.010174792 6.719155e-05 -0.0033012563 -0.0025762562 0.0072680623 -0.012350326
-0.009002294 -0.005327215 -0.0032507663 -0.0019529851 -0.0019383668 0.0060162814 -0.00043973135 0.0074089887
0.002472685 -0.0031008236 0.002187314 -0.011881949 -0.012775468 0.002639056 -0.011694679 -0.018865926
-0.0050914483 -0.00915077 -0.004135308 0.00036883424 -0.016839782 -0.0051064035 -0.00788134 -0.007970549
0.007533435 -0.0038866715 -0.0005899058 -0.0009272528 -0.0023563015 0.0013095734 -0.0011846251 -0.0024201241
-0.0055856286 -0.004163888 0.004623172 -0.004292923 -0.00030484656 -0.00039258413 -0.0012085487 0.009093408
0.0008413526 0.00047419535 0.001798996 0.009335056 -0.008895582 -0.010665776 0.055331193 0.034123518
-0.024888545 0.047258586 0.00223201 -0.012129501 -0.013690349 0.00097401044 -0.007377981 -0.0007637697
-0.015733112 -0.011741326 0.00038537948 -0.010063182 -0.004306187 0.0014050768 -0.002561092 0.0032347823
-0.0012977046 0.009598156 0.02276507 0.01913974 -0.010127163 0.028270975 0.0007243286 -0.0019222312
-0.002541669 -0.0021394964 0.0006841625 -0.04060847 -0.008050473 -0.02376684 -0.015135372 0.002057925
-0.009212421 -1.973682e-05 -0.012690439 -0.023573725 0.009568422 0.005443224 -0.002171143 0.0035323813
0.00011336827 0.0011393016 -0.00045360866 0.00044819876 0.0022489107 0.004120394 -0.0022919027 -0.0025390722

exp_avg_sq f4 [100, 5]
00000000: 3958 7437 60b7 9239 d99e 2b39 e098 7139
00000010: f03e 9439 b0cc 2f37 85ce 0639 9b67 3b39
00000020: 92b0 fb38 9c90 1839 4870 e23c 17d7 9a39
00000030: d610 bd3b 1784 623a 2a31 713a 7876 4239
00000040: c9ab 513a 6be9 0d3b 970a dd3a df50 ee3a
00000050: 6612 c73b 9b9b 2739 8c02 d23a 56e8 c839
00000060: 9abb be39 1e65 0638 d607 6c3a af4e d039
00000070: d448 2d3a 4bbe 3b3a 42ce 243c e710 433a
00000080: 80f5 2e3b dae8 373a 840c a53a 55dc 1637
00000090: 6a58 2b39 00f3 d738 99d1 f638 10ab c938
000000a0: 548b 593d 228a b33a 2968 313c cad6 d13a
000000b0: ebfd d33a bba5 583a 34d8 8138 08c3 6039
000000c0: 1178 c038 afde a738 c68a 9d37 1d5b 283a
000000d0: f118 1a3a 4668 903a 1462 323a 75e8 193b
000000e0: 27e7 9139 0cb9 093a 8bae 0339 6152 4b39
000000f0: 6360 2e3c 1951 193c c2e0 cb3b bcea 463b
00000100: 5bfc a93b 61be a236 4895 c538 325a 6938
00000110: af45 9838 7201 cc38 b8c8 b13b 8e5c a33a
00000120: 471f ed3a 37e0 8e3a a432 923a 55d9 553b
00000130: 723c 7139 e6e5 803a a714 8539 682c 8739
00000140: 4322 0738 c43f c539 88f4 0639 2e59 e938
00000150: de42 3739 5a08 493d ed63 af3a 7a24 203c
00000160: 19f7 e93a 2f76 853a f2af 023c 9eb4 eb39
00000170: 3d5b ea3a bfdf 003a 2f1e 373a a463 4a3d
00000180: 3d19 8c3a 9657 413c 75bf 0c3b 27c5 183b
00000190: d4f2 853b 8950 d13a bfe0 cd3a 2829 e43a
000001a0: 0ee1 923a 3ac8 3038 e98e 1c3a 713e 0b3a
000001b0: 8bd3 053a 6e76 263a 2cd1 bf3c 25f1 193b
000001c0: 6a0f bb3b 2157 9d3a 7c16 da3a 566f fc37
000001d0: b077 3b3a 539e 263a dafa 0a3a e9f0 f439
000001e0: 9586 4338 0c1d 9839 7ebd ae39 08af a139
000001f0: 2e9c 9839 7d50 363c 141b 943a c257 423b
00000200: 2592 883a 77e1 693a 69f7 193c ec71 1f3b
00000210: af06 303b 6cd8 7b3a e329 b23a aeec a239
00000220: 6602 823b 93ce 253b d568 da3a 8ec2 1a3b
00000230: eaf5 423b 435f c338 7a9b 2e3a 1213 e138
00000240: 280c 2a39 4650 e33c 00c0 e53a d4f1 033c
00000250: d36f 2c3b 6474 2a3b fc1a 6c3b 9078 9739
00000260: e91b 803a 2d91 a839 58a4 ad39 f69d 973b
00000270: ebcb ff39 92e0 a83a c9e3 d739 7f1e e339
00000280: 9028 873b fc88 8439 0ccb 9f3a bd62 ee39
00000290: ccdb c539 def9 193b c681 0b39 9988 193a
000002a0: 9184 1139 3323 0b39 d802 6138 ef46 ca3a
000002b0: 525b a239 228a 8439 85e8 f939 e067 803c
000002c0: b6bd 8839 1aab 4f3b 8002 bb39 7dc9 7539
000002d0: 3e26 163d 8b82 843b 7b90 fc3b 54a3 b83a
000002e0: be2f d13a 54c6 ce39 cca0 dd38 9179 3039
000002f0: bbd1 ef38 7df1 0539 c8f2 c738 6176 2039
00000300: 3caf 1839 6573 5a39 1036 4139 5537 c53a
00000310: b329 1f39 447c f339 e3b6 4a39 3661 7f39
00000320: bdc2 8838 393e 6f3a 29d6 b93a 0bdc b03a
00000330: bfa7 9a3a 00cc dd39 2344 1c3c 513e a53b
00000340: bfe5 3f3b dd22 823b 7549 e137 0525 4e3a
00000350: bf25 2739 6879 2439 2c9e 7b39 e5cf b53a
00000360: 9f15 f439 1ec4 d839 5769 2a39 ab33 7e39
00000370: 9882 aa3a 9c29 4539 d4ea d639 da37 5539
00000380: caea 4339 ee27 7d3c bea2 c23a e01f 793b
00000390: c02f 4d3a a58b db3a 9dae aa37 1985 113a
000003a0: 0cd3 4339 6d66 5339 d5f6 d839 6037 fc3c
000003b0: df70 b03a dc89 d53b d3a9 9f3a 7aa1 8c3a
000003c0: 7fb7 d33c d926 b63a 2fca da3b 1920 e53a
000003d0: d239 e33a 6037 fc39 0dd0 a138 feb2 0d39
000003e0: c649 8138 715c ab38 dc3c 1d3b 115a 3139
000003f0: 0cc7 343a d472 5039 e7b0 5c39 a284 583b
1.4564074e-05 0.00027983915 0.00016367006 0.00023040501 0.00028275652 1.047847e-05 0.0001285617 0.00017872306
0.000120015015 0.00014549721 0.02764143 0.00029533423 0.0057698293 0.0008640899 0.00092007464 0.00018545415
0.0007998315 0.002165402 0.0016864118 0.001818206 0.0060751913 0.00015984329 0.0016022488 0.00038320076
0.00036379398 3.2042262e-05 0.0009003853 0.00039731475 0.00066102785 0.000716184 0.010058941 0.00074411783
0.0026696622 0.00070155936 0.0012592231 8.991997e-06 0.00016340768 0.00010297261 0.00011769235 9.61629e-05
0.05311139 0.0013697783 0.010828056 0.0016009447 0.0016173696 0.0008264442 6.19147e-05 0.0002143496
9.1776375e-05 8.0046586e-05 1.878048e-05 0.00064222683 0.00058783503 0.0011017404 0.0006804776 0.0023484502
0.00027828777 0.00052537094 0.00012558156 0.00019390277 0.010643098 0.009357714 0.0062218616 0.0030352315
0.005187554 4.8501392e-06 9.421498e-05 5.563553e-05 7.2609044e-05 9.727747e-05 0.005425539 0.0012463497
0.0018090986 0.0010900561 0.0011154008 0.003263076 0.00023006069 0.000983414 0.00025383124 0.00025782292
3.2218417e-05 0.00037622277 0.00012870331 0.00011126917 0.0001747715 0.04908023 0.0013381221 0.009774322
0.001785013 0.0010182316 0.007976519 0.00044957263 0.0017879974 0.0004916153 0.00069853937 0.04941143
0.0010688674 0.011800667 0.0021476422 0.0023310871 0.0040877853 0.0015969436 0.0015707238 0.0017407285
0.0011205988 4.2148145e-05 0.0005972223 0.00053117337 0.000510507 0.0006350045 0.02341517 0.002348968
0.0057086246 0.0012004116 0.0016638781 3.0092586e-05 0.0007151319 0.00063559896 0.0005301662 0.000467188
4.6616962e-05 0.0002901334 0.0003332905 0.0003083872 0.00029108062 0.011127588 0.0011299574 0.0029654359
0.0010419531 0.00089218415 0.009397366 0.0024329377 0.0026859452 0.00096071395 0.0013592805 0.00031075388
0.003967571 0.002530013 0.0016663322 0.0023614499 0.0029748627 9.3160685e-05 0.0006660741 0.00010732388
0.00016216992 0.027748238 0.0017528534 0.008053262 0.002631177 0.0026009316 0.0036026826 0.0002889079
0.0009773943 0.0003215162 0.00033119577 0.0046269847 0.0004878932 0.001288431 0.0004117771 0.00043319535
0.0041247085 0.00025279063 0.001219125 0.00045468463 0.0003773853 0.002349488 0.00013304417 0.00058568415
0.00013877662 0.00013269186 5.364683e-05 0.0015432517 0.00030967087 0.0002527992 0.00047666222 0.015674531
0.00026081287 0.0031687678 0.00035669282 0.00023440081 0.036657564 0.0040438822 0.007707653 0.0014086762
0.0015959663 0.00039439148 0.00010568052 0.00016829955 0.000114354734 0.0001277383 9.534281e-05 0.00015302889
0.0001456113 0.00020833088 0.00018426054 0.0015046397 0.00015178956 0.00046441157 0.00019332352 0.00024354909
6.521258e-05 0.00091263984 0.0014178205 0.0013493312 0.001179926 0.00042304397 0.009537729 0.005042829
0.0029281226 0.003971441 2.6856296e-05 0.00078637927 0.00015940423 0.00015685486 0.00023996149 0.0013871161
0.00046555416 0.0004134485 0.00016251706 0.00024242575 0.0013008891 0.00018802885 0.0004099222 0.00020334069
0.00018684115 0.0154514145 0.0014849526 0.0038013384 0.00078272447 0.0016749991 2.034689e-05 0.0005551144
0.0001867527 0.00020160685 0.00041382635 0.030788124 0.0013461373 0.0065166783 0.0012181349 0.0010729276
0.025844334 0.0013897076 0.006676934 0.0017480879 0.0017335957 0.00048106443 7.715831e-05 0.00013513488
6.164941e-05 8.171134e-05 0.0023992574 0.00016913588 0.00068961154 0.00019879203 0.00021046736 0.003303804

exp_avg f4 [100]
00000000: f855 3cbc cf2b 563a fbd6 c2bb 48a2 fb3c
00000010: 59cc abbb 943d f53a 0998 7bbb b311 0c3c
00000020: 007b c9bb a4c8 a7ba 52d4 5e3b 9b36 d03b
00000030: 8094 a03b d867 013a 93a3 41bc a0eb a7bb
00000040: 5417 33bb 1ff7 953c 54c3 063a 3246 bbbc
00000050: 52a3 d53b f94f aeba 2c4a 7ebb fa5b f03b
00000060: 491f 22bb 1d95 fc3b 64cd f4ba d618 4ebb
00000070: 1679 80bb 1478 a23c 9c97 b73a 0912 8dbb
00000080: a6ba acba eec3 79bb 2c37 373c a78b b43b
00000090: ec22 1b3c 7b06 ffba c127 473b b09b 633b
000000a0: aefd 1abc 3360 0fbd 4c78 313c 069d 6b3c
000000b0: 4e90 073b 7761 8abc f291 453b 1395 983c
000000c0: ae83 5b3c 183f 26bb a220 97bb ee8a adbb
000000d0: e076 483b ec84 633b 4845 1fba aa8f d9bb
000000e0: d0e0 b9b8 242c 793b df6e bd3b 1afc 2b3c
000000f0: e94f 3a3d 0075 93bb 5620 0b3d ae51 0bbc
00000100: b3cc 7c3c 0003 4b3c 5669 023c 54dd 5ab9
00000110: 1a40 39bc 7a8f 8c3c c5bf 18bc 5a48 b13a
00000120: c28b 07bb 8448 01bc 7e99 073a 8ff1 52bb
00000130: 55bf c93b fc9b f13b d69b b7bb a96a 9bba
00000140: ef49 d53b 2869 063c d436 363b 1299 c1bb
00000150: 8a19 c9bb 7049 10bd 98b0 063b 704c 553b
00000160: d37d 3c3d 57c8 80bc 74b2 7ebb f6f6 aabb
00000170: 1ced 8d3b 2a3a dbba 22fc 803a 30f5 64bb
00000180: e4e0 ec3b d2ff f7bb 3141 1abb 1fcc 1d3b
-0.011495106 0.000816998 -0.005946038 0.03071703 -0.005242866 0.0018710368 -0.003839018 0.008549142
-0.006148696 -0.0012800884 0.0034001064 0.0063541657 0.004900515 0.00049364334 -0.011818784 -0.0051245242
-0.0027327137 0.018306313 0.00051408005 -0.02286062 0.0065197134 -0.001329898 -0.0038801534 0.007335183
-0.0024737886 0.0077082054 -0.0018676934 -0.003144791 -0.0039206846 0.019832648 0.0014006975 -0.0043051285
-0.0013178184 -0.0038111168 0.011182588 0.005509812 0.009468775 -0.0019456887 0.0030388685 0.0034730248
-0.009459896 -0.035003852 0.010831904 0.014380699 0.0020685378 -0.016892178 0.0030146805 0.018625772
0.013398094 -0.0025367197 -0.0046120444 -0.0052961027 0.0030588433 0.0034716679 -0.00060756924 -0.0066394405
-8.863362e-05 0.0038020695 0.005781039 0.010497117 0.045486365 -0.0045000315 0.033966385 -0.008503361
0.0154296635 0.012390852 0.007959684 -0.00020872551 -0.011306787 0.017158259 -0.009323065 0.0013525591
-0.0020682667 -0.007890824 0.00051727134 -0.0032187437 0.0061568418 0.007373331 -0.005603294 -0.0011857349
0.0065090577 0.008203782 0.0027803676 -0.00590814 -0.0061370777 -0.035226285 0.0020552035 0.003254678
0.046018433 -0.01572053 -0.003886369 -0.0052174283 0.004331244 -0.0016725708 0.0009840766 -0.0034936182
0.0072289575 -0.007568338 -0.0023537392 0.0024077964

exp_avg_sq f4 [100]
00000000: e1f5 8939 0056 3d39 741d 8b3a 68a3 523b
00000010: 254a 143a 58e5 6a3a 378c 893a 842b 1339
00000020: be6a fb3a ee4d c438 ca76 723a 035c 3f39
00000030: 3ea1 d93b 3a84 b638 7867 b33a 52dd dd39
00000040: bbaa 4739 5b48 f03a 16a4 eb39 730c 613b
00000050: b48e d93a 4fe8 133a c8b2 f43a 2fc9 423a
00000060: ec8b 073a 39e3 cc3a 7837 de3a 16c0 5d3b
00000070: ea85 3e39 49ab 953b 28ec e739 cd49 433a
00000080: b895 163a 88d8 4239 c17a 1e3a d2d5 033a
00000090: ea42 143b 319e 2b39 b4dc 4739 8b0f 7d39
000000a0: 02d5 083b d04e 953b 1f6a ad39 5dbc 9839
000000b0: 689b 6d39 6724 ae3a a04d 9439 93b8 ca3a
000000c0: 3394 323b 3070 9038 1bd7 a039 72ee a739
000000d0: 4535 803a c737 083a 79bd b639 e1f6 bf38
000000e0: 4aec bb38 c205 a838 f845 c438 1c6d 253a
000000f0: ce49 1b3b 8e05 ba39 0f9b e43b 8c2c 473b
00000100: 9b1e 8d39 4c87 8d3a 43c8 f938 7b10 bb39
00000110: f90c 3d3a cde6 a93b 67c2 283b c9c5 a93a
00000120: 4e7a 5839 00f0 943a ab26 c138 6be7 c239
00000130: 8e8a 7c3a cdbf fa39 bb84 8a38 1165 273a
00000140: 4fcb 3d39 1ce1 9839 6ec0 873a 7398 cb3b
00000150: f28b 643a 14c6 ea3b 0d24 bd3a 9320 8139
00000160: e21f 053b 851c ca3b d81b b639 8c46 a738
00000170: e9d8 2c38 7c19 2f39 b0ef 0f3a 3848 a538
00000180: 3578 1c39 505e 3d3a 8980 2939 3efd 5b39
0.0002631387 0.00018056482 0.0010613636 0.0032140855 0.00056568003 0.00089605665 0.0010494058 0.00014035223
0.0019181592 9.360524e-05 0.00092492683 0.00018249456 0.006641536 8.7030654e-05 0.0013687452 0.000423173
0.00019041721 0.001833211 0.00044944946 0.0034339696 0.0016598315 0.00056422217 0.0018669004 0.00074304914
0.00051706913 0.0015631682 0.0016953787 0.0033836416 0.00018169699 0.004567538 0.00044235704 0.0007449657
0.0005744356 0.00018581946 0.00060455134 0.0005029115 0.0022622892 0.00016366762 0.00019060337 0.0002413375
0.0020878916 0.0045565143 0.00033076198 0.0002913204 0.00022659975 0.0013285995 0.00028286595 0.0015466384
0.0027248978 6.8873516e-05 0.00030677844 0.00032030378 0.00097815 0.00051963 0.00034854913 9.1535745e-05
8.960867e-05 8.011937e-05 9.359041e-05 0.0006310509 0.0023695114 0.00035480823 0.0069764922 0.0030391542
0.0002691642 0.0010797768 0.00011910547 0.00035679698 0.0007211711 0.0051849843 0.0025750638 0.0012952621
0.00020644927 0.001136303 9.2101596e-05 0.00037174983 0.00096336834 0.00047826619 6.605076e-05 0.00063856045
0.00018100183 0.0002915942 0.0010357031 0.0062132417 0.0008718363 0.007164726 0.00144303 0.00024629067
0.0020313193 0.0061679506 0.0003473449 7.976321e-05 4.121001e-05 0.00016698794 0.00054907333 7.881265e-05
0.000149221 0.00072238315 0.00016164979 0.00020979808

exp_avg f4 [100, 100]
00000000: 9cb1 2c3a 655f 43bb d0d3 2dbb 0a0d f2bb
00000010: 56a9 cdbb 893b 19bc 88d7 2839 fe27 ddba
00000020: 021a 82ba 74f1 22b9 3277 bdb9 cee0 15ba
00000030: a136 8bbb 997e c9bb 847e 07bc 7bf1 60bb
00000040: cb26 76b5 16b6 8633 f7e9 56b9 4b93 0abc
00000050: f474 5b38 1e81 21bb 86c6 17bb f253 97bb
00000060: 5259 d5bb 6880 f7b9 110f bfbb c7de f7ba
00000070: e4ca 01ba 73d3 1abb 42b1 a3bb a237 adbb
00000080: 32bc b8ba 22f7 1dbc 9ec3 6ebb be4e 4f39
00000090: d39d cf37 b8cc 273a aaba 903a 2f92 283b
000000a0: 71f6 09bb 8c7e 0fbb 30b5 02ba 0cb4 4b3a
000000b0: f216 e6b9 ca3d 0abc ef86 70ba 6cf5 4839
000000c0: dc20 9f3a b3c1 dabb 552f 0c3a 39ff d039
000000d0: 6a7a c4b8 eccd 2fbc c1b6 eabb 2ad5 f9bb
000000e0: f527 93ba 21c8 70ba cb35 033a 62a2 bfba
000000f0: c2ab 39ba 71f8 73ba 5cf8 29bb a431 1dbc
00000100: 6851 1438 62d6 00bc 0696 b9bb da92 66bb
00000110: 1672 a9ba 6dcb 14b9 6947 d8bb 4a96 c3ba
00000120: f5e2 8839 1c52 f8ba b441 1a39 a471 86b9
00000130: 38b2 04ba 9802 ad3a c943 cfbb 720f cbba
00000140: a8f2 71bb 5786 f4ba 2172 27b8 eec1 3ebb
00000150: 364d 2ebc 3ac5 83bb 0a56 beba 4f51 1bba
00000160: 2929 92ba de9c bdbb e4c3 08bc 6813 73bb
00000170: 665b 403a e50a 63bc cadc 06ba 5c82 ecba
00000180: 5c0a 1339 d3b8 7abb 7f36 9eba 9a5b 43b9
00000190: 0000 0000 0000 0000 0000 0000 0000 0000
000001a0: 0000 0000 0000 0000 0000 0000 0000 0000
000001b0: 0000 0000 0000 0000 0000 0000 0000 0000
000001c0: 0000 0000 0000 0000 0000 0000 0000 0000
000001d0: 0000 0000 0000 0000 0000 0000 0000 0000
000001e0: 0000 0000 0000 0000 0000 0000 0000 0000
000001f0: 0000 0000 0000 0000 0000 0000 0000 0000
00000200: 0000 0000 0000 0000 0000 0000 0000 0000
00000210: 0000 0000 0000 0000 0000 0000 0000 0000
00000220: 0000 0000 0000 0000 0000 0000 0000 0000
00000230: 0000 0000 0000 0000 0000 0000 0000 0000
00000240: 0000 0000 0000 0000 0000 0000 0000 0000
00000250: 0000 0000 0000 0000 0000 0000 0000 0000
00000260: 0000 0000 0000 0000 0000 0000 0000 0000
00000270: 0000 0000 0000 0000 0000 0000 0000 0000
00000280: 0000 0000 0000 0000 0000 0000 0000 0000
00000290: 0000 0000 0000 0000 0000 0000 0000 0000
000002a0: 0000 0000 0000 0000 0000 0000 0000 0000
000002b0: 0000 0000 0000 0000 0000 0000 0000 0000
000002c0: 0000 0000 0000 0000 0000 0000 0000 0000
000002d0: 0000 0000 0000 0000 0000 0000 0000 0000
000002e0: 0000 0000 0000 0000 0000 0000 0000 0000
000002f0: 0000 0000 0000 0000 0000 0000 0000 0000
00000300: 0000 0000 0000 0000 0000 0000 0000 0000
00000310: 0000 0000 0000 0000 0000 0000 0000 0000
00000320: 6a0e e0ba d83d 16b9 6ecd 803a 2233 003a
00000330: d1ef 01ba 5a94 993a 8fe3 4dba f443 1aba
00000340: 2c24 c2b9 3e38 513a 3cf1 fb39 805c 02ba
00000350: f8fa 783a cca5 d43a a639 503b 7e30 8739
00000360: 2459 a5b9 931f 69b9 8f28 efb8 30cf d639
00000370: 2e69 4eb9 6e17 d739 76cf 513a 3227 3a3a
00000380: 0562 a93a 60ac 80ba 6bb1 d93a 90b4 9638
00000390: e458 0d39 9692 203a 8efa 053b 006b 5338
000003a0: bf3c 933a c487 323b 00f5 a939 2c84 ab38
000003b0: abca ccb9 2b5d dbba b6d8 2abb dfc7 85bb
000003c0: 2079 13b9 f0a3 323a 85a8 afba 9391 e0ba
000003d0: e41c e5b9 383d 4d3b 1e89 2bb9 ccd3 67ba
000003e0: c2b2 31bb a0e8 1d3b da59 44ba 5955 0ab9
000003f0: 946d 5fb9 c5fb f73a aba5 f73a ae86 383b
0.0006587745 -0.0029811498 -0.0026523955 -0.0073868083 -0.00627629 -0.009352573 0.0001610202 -0.001687288
-0.0009925964 -0.00015539472 -0.00036137697 -0.00057173974 -0.0042484556 -0.006149125 -0.00826991 -0.003432362
-9.169859e-07 6.2729825e-08 -0.00020495789 -0.008457969 5.232259e-05 -0.002464361 -0.00231591 -0.0046181614
-0.006510892 -0.0004720718 -0.0058306535 -0.0018910997 -0.00049511925 -0.0023624569 -0.004995496 -0.005286173
-0.0014094173 -0.009641441 -0.0036432515 0.00019770392 2.4749816e-05 0.000640105 0.0011041958 0.0025721898
-0.0021051432 -0.0021895496 -0.00049861055 0.00077706645 -0.00043886114 -0.008437583 -0.000917538 0.00019164913
0.001214053 -0.006675923 0.0005347629 0.00039863007 -9.36881e-05 -0.010730248 -0.0071628992 -0.007624288
-0.0011227118 -0.0009185095 0.0005005269 -0.0014620537 -0.0007082784 -0.0009306735 -0.0025935387 -0.009594355
3.5361765e-05 -0.007863613 -0.005663636 -0.0035182745 -0.0012927677 -0.00014190162 -0.0066003096 -0.0014922109
0.00026109038 -0.0018945369 0.00014711061 -0.0002564314 -0.0005061957 0.0013199626 -0.0063252193 -0.0015492274
-0.0036918316 -0.0018655759 -3.9922194e-05 -0.002910729 -0.010638526 -0.004021314 -0.0014521491 -0.00059248967
-0.0011151183 -0.0057865223 -0.008347485 -0.0037090424 0.0007337838 -0.013857578 -0.00051445945 -0.0018044221
0.00014022872 -0.0038257136 -0.0012070684 -0.00018630773 0.0 0.0 0.0 0.0
0.0 0.0 0.0 0.0 0.0 0.0 0.0 0.0
0.0 0.0 0.0 0.0 0.0 0.0 0.0 0.0
0.0 0.0 0.0 0.0 0.0 0.0 0.0 0.0
0.0 0.0 0.0 0.0 0.0 0.0 0.0 0.0
0.0 0.0 0.0 0.0 0.0 0.0 0.0 0.0
0.0 0.0 0.0 0.0 0.0 0.0 0.0 0.0
0.0 0.0 0.0 0.0 0.0 0.0 0.0 0.0
0.0 0.0 0.0 0.0 0.0 0.0 0.0 0.0
0.0 0.0 0.0 0.0 0.0 0.0 0.0 0.0
0.0 0.0 0.0 0.0 0.0 0.0 0.0 0.0
0.0 0.0 0.0 0.0 0.0 0.0 0.0 0.0
0.0 0.0 0.0 0.0 0.0 0.0 0.0 0.0
-0.001709414 -0.00014328153 0.0009826848 0.0004890432 -0.0004956695 0.0011717186 -0.0007854038 -0.00058847596
-0.00037029514 0.0007981098 0.00048054184 -0.000497289 0.00094978465 0.0016223728 0.0031772642 0.00025785336
-0.00031537667 -0.00022232374 -0.00011403963 0.00040971627 -0.00019684873 0.00041025452 0.00080036314 0.00071011775
0.0012922889 -0.0009816997 0.0016608661 7.18619e-05 0.00013479922 0.00061253586 0.0020443532 5.040597e-05
0.0011233314 0.0027241567 0.0003241673 8.178534e-05 -0.00039060912 -0.001673614 -0.0026069111 -0.0040826644
-0.00014064135 0.000681459 -0.0013401663 -0.0017133228 -0.0004369981 0.0031317007 -0.00016358911 -0.0008843511
-0.0027114605 0.0024094954 -0.00074901956 -0.000131925 -0.00021307758 0.0018919638 0.0018893977 0.0028156447

exp_avg_sq f4 [100, 100]
00000000: 374c 6d37 04ed b738 0f1e 8638 eb97 3639
00000010: 09da 8339 9dfd 8e39 fbb1 9e37 8c3b b237
00000020: 0f0c a637 87ca bc38 bbbf 3e36 327b c839
00000030: 30ca 2238 f6a0 4538 7fc2 4239 b613 4438
00000040: 66ed 8a32 f72f 0d32 e7cc 1334 559f a939
00000050: 0787 da34 faed 7d38 733f 6d36 bb2d 1239
00000060: cda2 3239 5f39 4e38 dcf7 e437 ce0f 9d37
00000070: fe1d 1a36 92c6 d838 69ac 8338 9ecf 2339
00000080: 7e4f 2538 e847 ca39 8173 8338 4fe0 3436
00000090: 7b65 dd35 f775 8d38 67dd 4b38 ee85 f338
000000a0: 1bc7 0b38 436f 4a36 e741 c837 0c73 e038
000000b0: 2b0c fa36 fe4d ab38 8a7f 3136 5821 0f37
000000c0: 7ece 2539 f811 b538 6b07 7f39 7d7e 3e37
000000d0: 03bf 3535 24f9 8339 cae6 a338 794b 1d39
000000e0: 6352 3b36 8000 4d36 4534 cc37 f05d a638
000000f0: 8913 f738 d385 c837 57b6 1b38 6d39 3e39
00000100: 38fc 9336 a6a9 5139 0563 ba38 295c e538
00000110: a8ed b838 d0a0 2535 56b4 2f38 4c16 8d36
00000120: 7bf2 6137 2c8e 2237 f545 3238 5f90 fd37
00000130: 4393 9f37 9a7b 5738 b1b1 8038 ab53 3839
00000140: 5aa8 8239 359b fa36 8dfe d736 0721 a737
00000150: 1596 8f39 db58 9b39 8cc3 1137 b956 a636
00000160: ae1d dd38 a973 0e39 6e53 0a39 953b fc38
00000170: baf8 8b36 17d2 153a fe87 0237 80a6 8038
00000180: 0f28 ef36 685e e537 7305 7938 1b42 5b35
00000190: 0000 0000 0000 0000 0000 0000 0000 0000
000001a0: 0000 0000 0000 0000 0000 0000 0000 0000
000001b0: 0000 0000 0000 0000 0000 0000 0000 0000
000001c0: 0000 0000 0000 0000 0000 0000 0000 0000
000001d0: 0000 0000 0000 0000 0000 0000 0000 0000
000001e0: 0000 0000 0000 0000 0000 0000 0000 0000
000001f0: 0000 0000 0000 0000 0000 0000 0000 0000
00000200: 0000 0000 0000 0000 0000 0000 0000 0000
00000210: 0000 0000 0000 0000 0000 0000 0000 0000
00000220: 0000 0000 0000 0000 0000 0000 0000 0000
00000230: 0000 0000 0000 0000 0000 0000 0000 0000
00000240: 0000 0000 0000 0000 0000 0000 0000 0000
00000250: 0000 0000 0000 0000 0000 0000 0000 0000
00000260: 0000 0000 0000 0000 0000 0000 0000 0000
00000270: 0000 0000 0000 0000 0000 0000 0000 0000
00000280: 0000 0000 0000 0000 0000 0000 0000 0000
00000290: 0000 0000 0000 0000 0000 0000 0000 0000
000002a0: 0000 0000 0000 0000 0000 0000 0000 0000
000002b0: 0000 0000 0000 0000 0000 0000 0000 0000
000002c0: 0000 0000 0000 0000 0000 0000 0000 0000
000002d0: 0000 0000 0000 0000 0000 0000 0000 0000
000002e0: 0000 0000 0000 0000 0000 0000 0000 0000
000002f0: 0000 0000 0000 0000 0000 0000 0000 0000
00000300: 0000 0000 0000 0000 0000 0000 0000 0000
00000310: 0000 0000 0000 0000 0000 0000 0000 0000
00000320: 1477 9637 b7c1 d137 550a 6338 372e 8338
00000330: 3af2 c938 970f a238 c830 5737 1dc2 be37
00000340: e657 7137 7d4c 5938 e4b5 f336 49ab 7239
00000350: dc46 1c37 ab91 c337 d40a 9538 6f65 1838
00000360: 3b9e 2836 f479 9235 215b d334 bc11 fa38
00000370: 54e0 9736 fbab 3c38 1448 0d36 f72e 3138
00000380: e95f 6338 e595 1138 45b7 4b37 9c4a d836
00000390: 3032 1737 0f94 9c38 22ee 1938 bc7d b338
000003a0: 962c 0b38 3ff2 2739 e8b7 3238 ea04 2b36
000003b0: b356 d036 661f 4738 59cf e937 3b12 7038
000003c0: 2bd5 1038 9489 f535 ccc5 9437 33ef 7738
000003d0: f81c e935 2e45 af37 787b 4034 9a94 6e36
000003e0: 555f c238 5c61 c737 3898 2e39 181c 8237
000003f0: 918f ee35 af7c a138 c17a 0438 eb9a 3338
1.4144046e-05 8.7702676e-05 6.395217e-05 0.00017413466 0.00025148716 0.00027273307 1.8917946e-05 2.1246982e-05
1.9794357e-05 9.002262e-05 2.8423808e-06 0.0003823876 3.881211e-05 4.7118367e-05 0.00018573737 4.67484e-05
1.617327e-08 8.218186e-09 1.3764985e-07 0.00032352904 4.070391e-07 6.0541533e-05 3.5352684e-06 0.00013940681
0.00017036051 4.916766e-05 2.7295137e-05 1.8723218e-05 2.2965246e-06 0.00010336669 6.278681e-05 0.00015622235
3.94131e-05 0.00038582017 6.268081e-05 2.6952655e-06 1.6495318e-06 6.7453766e-05 4.860517e-05 0.00011612089
3.3325614e-05 3.0165108e-06 2.3872546e-05 0.000107025815 7.451997e-06 8.1684426e-05 2.6449293e-06 8.531228e-06
0.0001581255 8.6340995e-05 0.00024321458 1.1354333e-05 6.7705713e-07 0.0002517189 7.8154335e-05 0.00015000803
2.7913127e-06 3.0547671e-06 2.4343035e-05 7.932994e-05 0.000117815165 2.3904175e-05 3.7124697e-05 0.00018141205
4.4103035e-06 0.00019994992 8.887615e-05 0.00010936737 8.818071e-05 6.1701303e-07 4.1891202e-05 4.204723e-06
1.3467502e-05 9.689054e-06 4.250366e-05 3.0227178e-05 1.9022851e-05 5.1375107e-05 6.136613e-05 0.00017578776
0.00024920964 7.468649e-06 6.437133e-06 1.9923331e-05 0.00027386905 0.00029630106 8.688203e-06 4.9572814e-06
0.000105436295 0.00013585262 0.00013191786 0.000120273944 4.1714784e-06 0.0005715205 7.780267e-06 6.134529e-05
7.1274185e-06 2.7342889e-05 5.93713e-05 8.1680054e-07 0.0 0.0 0.0 0.0
0.0 0.0 0.0 0.0 0.0 0.0 0.0 0.0
0.0 0.0 0.0 0.0 0.0 0.0 0.0 0.0
0.0 0.0 0.0 0.0 0.0 0.0 0.0 0.0
0.0 0.0 0.0 0.0 0.0 0.0 0.0 0.0
0.0 0.0 0.0 0.0 0.0 0.0 0.0 0.0
0.0 0.0 0.0 0.0 0.0 0.0 0.0 0.0
0.0 0.0 0.0 0.0 0.0 0.0 0.0 0.0
0.0 0.0 0.0 0.0 0.0 0.0 0.0 0.0
0.0 0.0 0.0 0.0 0.0 0.0 0.0 0.0
0.0 0.0 0.0 0.0 0.0 0.0 0.0 0.0
0.0 0.0 0.0 0.0 0.0 0.0 0.0 0.0
0.0 0.0 0.0 0.0 0.0 0.0 0.0 0.0
1.7936844e-05 2.5004947e-05 5.413064e-05 6.255175e-05 9.629545e-05 7.727666e-05 1.2826356e-05 2.2740156e-05
1.4385185e-05 5.1808067e-05 7.263139e-06 0.00023142727 9.314823e-06 2.3313643e-05 7.1068906e-05 3.633409e-05
2.5126053e-06 1.0913341e-06 3.9368118e-07 0.00011924232 4.526266e-06 4.4982862e-05 2.1052592e-06 4.2243828e-05
5.421034e-05 3.4710294e-05 1.2142414e-05 6.4459873e-06 9.011987e-06 7.466238e-05 3.669982e-05 8.558805e-05
3.3181706e-05 0.00016016605 4.2609783e-05 2.5483846e-06 6.208976e-06 4.747454e-05 2.7872318e-05 5.7237437e-05
3.4530804e-05 1.8293963e-06 1.7735081e-05 5.911216e-05 1.7368284e-06 2.089384e-05 1.7926311e-07 3.555126e-06
9.268398e-05 2.3767985e-05 0.00016650639 1.551029e-05 1.7774165e-06 7.7003024e-05 3.1585576e-05 4.2821204e-05
