basic/lightning_logs/version_0/checkpoints/epoch=77-step=21060.ckpt (torch, 140943 bytes, 15 tensors)

model.0.weight f4 [100, 5]
00000000: 3a64 133f e8c2 c63e b856 c43d dc3c f2be
00000010: 0019 a0be 14d8 fc3e eb71 7abe 5076 dfbe
00000020: 4c07 2dbe fbf8 ab3d 5008 01be de87 893f
00000030: 9081 60be 0419 743e a5d7 c9bd aa06 953e
00000040: 6fee 1fbf 37bb c43d 291a b23b 0a0b cb3d
00000050: 0c57 58bd bbfb 5cbf 86d7 0e3e bd41 cebe
00000060: 86e8 16be 4e64 af3e e483 fdbe 6fd8 c2bc
00000070: 6c1d 873d 7265 07be 8047 673d 2a3b 933e
00000080: 296c 30be a8c2 9ebe 70e8 debe e3ee 173f
00000090: a831 853d 7690 a53e 873e 1c3e 52fb 5c3e
000000a0: 2319 24be 1436 bcbd 3518 053e 1cfd 82be
000000b0: 0fce 11bf aec4 87be 7b8c 973e 305a 65be
000000c0: 28e2 113f 5aa2 9abc d7dc 2fbe fcb2 503d
000000d0: a8c7 213f b9ea 193f da02 bc3c df6a 95be
000000e0: 351f e63e 9a62 c7be 4fd4 393e 5e83 d53d
000000f0: 2cf6 bd3d 2c8e 04bf 051f bfbc 343f f8bd
00000100: efe3 f1bd 0884 333f 0954 88be 9083 1b3f
00000110: 0f06 bd3e e016 4abe f782 bf3c c799 2a3e
00000120: 49fa 9c3d 2407 d13e 3a7b 01bf 2e81 743d
00000130: 7230 63be 89db e8be 4eb1 7a3e ca12 b13e
00000140: fd6b a53d a391 e9be 57d8 183e 7664 2c3e
00000150: fd94 c13e 3dfb 60be e380 a3be e88c 053f
00000160: 34bc 15be 5876 e43d 6771 3c3d b502 823c
00000170: 989b 2fbe 29ea d23d 6229 b73e 7835 003d
00000180: bb83 95bf 8f6d 25bd 06bc bbbe 8ea2 103d
00000190: 3b07 8cbd 1097 a53d e9d1 1a3d e6a7 0d3f
000001a0: 2639 9c3e 537a d93e 9588 023f 0a40 5bbe
000001b0: 7526 803e 69c1 5b3d 26f5 39bc e4cc eabe
000001c0: 6543 edbd 5bdc 273e 0044 943d c8cf e83e
000001d0: 22aa 1d3e f0ec d7be d077 c0bc 74f3 89be
000001e0: ca68 6f3e c052 0ebc 25f5 c9be 49f0 333e
000001f0: 2093 76bd adcf 71be 8995 413f 1c53 af3d
00000200: 7c0b acbe bbc9 19bd a85d a9bd 879e ecbe
00000210: f426 db3d b554 0b3f a6c9 063c d1e7 8f3e
00000220: 01a2 fdbe 8f0c 863c 8c47 69be 164b ad3d
00000230: 9e16 95be 95e1 0abf d686 153f fc36 113e
00000240: cae6 0e3e a233 26be b3bd 493f 7d22 a43c
00000250: 088b 2e3e aa24 5f3d c5ce 55be 3345 2fbe
00000260: e85d be3d 7f61 1b3f b43d 8f3c e892 bf3d
00000270: 5f7d 1bbe 9596 c5be c547 9a3e cb03 b43e
00000280: 5702 cdbe e4cf 383f bc3c 023f 1abc 1d3e
00000290: 6545 46bd 1e05 64be 8769 c1be e40f 2cbe
000002a0: d3d6 cf3d 87dd aabe 0edd aa3e 39db ec3d
000002b0: 1130 853e 27f3 603e ffd1 723d 7b98 9dbe
000002c0: 4ed2 dbbd 818b 003f 62e1 9cba a92c 073f
000002d0: c0d8 fdbd fa32 ecbe 91a9 ef3d d747 aebb
000002e0: c311 e13e 3b70 3dbe acc7 843e 1114 853e
000002f0: e43c 27be 8010 4d3d 319c 2e3e 70de ab3e
00000300: fba1 9bbd e40f c3be 9e82 b53d 33ed 2a3e
00000310: f2bc 9e3e 75cc c6be 45b1 0dbf 6a78 623d
00000320: 900c 523f 9735 4e3f 973c adbd 772d 1abd
00000330: 7a90 7f3d c2aa 633d e847 0fbf 0f81 7e3e
00000340: cbb9 3d3d 0031 e2bd 19d2 9f3e ee9b 06bc
00000350: 3cfa 893d 3d66 853c d757 8a3e aa9e 6dbc
00000360: a8cd 8f3e cbc1 77be a14c 1abe d5d2 67bc
00000370: a8e4 03be 8da5 aa3e fa5f 473e 7b31 53be
00000380: 7917 a13e b6ad b8bd b2ad dbbe 5ec5 233e
00000390: a8bb ac3e 266d febe 6f51 1e3e 33c9 d43d
000003a0: 3c35 323c ac3f 55be 0937 003f 8a5d 56be
000003b0: d3b8 c0bb 4e31 013f e781 75be 45fb d43e
000003c0: 941d 5a3d 80fd fe3e be60 3cbe 7cd9 edbe
000003d0: 454c d0be 0f97 97bc b48a 52be 2c28 51be
000003e0: 9e84 a13e 5616 4ebe a930 b3be ce92 f83d
000003f0: cf13 abbe 53b1 363e a56e 763e f6cd 98be
0.5757481 0.38820577 0.09586853 -0.47312057 -0.31269073 0.49383605 -0.24457519 -0.43644953
-0.16897315 0.08397099 -0.12600827 1.0744588 -0.21924424 0.23837668 -0.09855584 0.29106647
-0.62473196 0.09606021 0.0054352474 0.09914215 -0.05281739 -0.8632161 0.13949403 -0.4028453
-0.14737138 0.34256214 -0.49514687 -0.023784844 0.06597409 -0.13222292 0.056464672 0.28756076
-0.1722876 -0.31007886 -0.4353671 0.5934889 0.06503612 0.32336777 0.15258227 0.21580246
-0.16025214 -0.09190002 0.12997515 -0.25583732 -0.56955045 -0.26517242 0.29599366 -0.22397685
0.5698571 -0.018876243 -0.17174087 0.050951943 0.63195276 0.60123783 0.022950578 -0.291831
0.44945684 -0.38942415 0.18147396 0.10425447 0.09275469 -0.5177944 -0.023330221 -0.1212143
-0.11811053 0.7012334 -0.26626614 0.60747623 0.36918685 -0.19735289 0.023377879 0.16660224
0.076649256 0.4082576 -0.50578654 0.059693508 -0.22186449 -0.45479992 0.24481699 0.34584647
0.08077238 -0.45618924 0.14926277 0.16835198 0.37808982 -0.2197084 -0.3193427 0.5216813
-0.14622575 0.11155385 0.046006586 0.015870431 -0.17149198 0.10298569 0.3577376 0.03130099
-1.1680826 -0.040387686 -0.36666888 0.035311274 -0.068373166 0.080854535 0.037797842 0.5533432
0.3051235 0.42476138 0.5098966 -0.21411148 0.2502934 0.053651247 -0.011349952 -0.45859444
-0.1158512 0.16392653 0.072395325 0.45471025 0.15396932 -0.42172956 -0.023494631 -0.26943552
0.23379818 -0.008686721 -0.39444843 0.1757213 -0.060198903 -0.23614378 0.756188 0.08560774
-0.33602512 -0.0375459 -0.08269817 -0.46214697 0.10700789 0.5442613 0.008226788 0.2810655
-0.49537662 0.01636341 -0.22781199 0.08461587 -0.29118818 -0.5425046 0.5840887 0.14181131
0.13955227 -0.16230634 0.78805083 0.020035977 0.17045224 0.054478325 -0.20879658 -0.17116241
0.09295255 0.6069564 0.017485477 0.09354192 -0.15184544 -0.38591447 0.3013288 0.35159144
-0.40040848 0.72192216 0.50873923 0.15403786 -0.048406024 -0.22267577 -0.37775823 -0.16802937
0.10148396 -0.33372137 0.33371776 0.11565251 0.26013234 0.21967755 0.0592823 -0.30780396
-0.10733472 0.50212866 -0.0011969025 0.5280252 -0.123948574 -0.46132642 0.11702264 -0.0053186226
0.43958864 -0.18499844 0.25933588 0.25991872 -0.16331822 0.050064564 0.1705177 0.33568144
-0.07599255 -0.3809806 0.08862804 0.16692047 0.3100353 -0.38827863 -0.55348617 0.055290617
0.8205042 0.8055052 -0.08458822 -0.037641015 0.062393643 0.05558277 -0.55969095 0.2485392
0.046319764 -0.11044502 0.3121498 -0.0082158875 0.067371815 0.016284103 0.2702014 -0.0145031605
0.2808659 -0.2419502 -0.15068294 -0.014149387 -0.12880194 0.3332943 0.19470206 -0.20624344
0.3146322 -0.09017508 -0.42905957 0.15993258 0.3373692 -0.4969265 0.15460752 0.10389938
0.01087695 -0.2082507 0.50083977 -0.2093412 -0.0058814078 0.5046586 -0.23975335 0.41597953
0.053250864 0.4980278 -0.18396279 -0.4645499 -0.4068319 -0.018504648 -0.20560724 -0.2042548
0.3154649 -0.20125708 -0.34998062 0.12137376 -0.3341355 0.17841081 0.24065645 -0.29844636

model.0.bias f4 [100]
00000000: 5212 39bd c38a bebd 6d38 eabe 4254 d83e
00000010: 4d46 923e f99b c23e f3ff 8bbe 832f 0f3f
00000020: 20da d0be 0de4 ddbe 6079 7f3d 933c d03e
00000030: b4ae 93be d3f2 543e 1622 fe3d 15ae bebc
00000040: 1eb7 b8be 2044 98bd b822 eebe 5586 a73d
00000050: bbe7 34be 6ebc cc3d b5e3 0fbf c025 5ebc
00000060: 3e64 2a3e e5d7 0b3c a547 82be 0a0d 87be
00000070: f3c0 3c3d 36ae a63e ad03 af3d 1cf9 e43e
00000080: a191 133e 53fe 633e 7093 183f 24bc 73be
00000090: cec5 8ebe 0a63 263f 6e42 e53e 1f93 ae3e
000000a0: 8e76 213d 0e17 0bbf 0809 e53e 83a3 b03e
000000b0: df6f 333d 4528 aebe 5c80 b2be cfbd b93e
000000c0: c980 9d3e d22e 2abe 8c92 0f3e 5a70 2fbe
000000d0: c8a2 a1be 3963 ab3e 1e4c 8f3e 15fd 62be
000000e0: 6bfa f7be 3379 d4bd 4aa0 e9be 6612 793d
000000f0: ff3d 013f 3eec 50be 710f f33c 55fc 02bf
00000100: f5f8 43bf e996 a43e 5e41 b03e 44e1 b8bd
00000110: 3389 173e 1272 08bf c1fb 51bf d6c0 a5be
00000120: be09 23bf 2d5b 4ebf 9754 acbe 374a 2cbf
00000130: 4663 b6bd c464 3d3e fe26 e2bd b72c 81be
00000140: 4624 883e c0a9 06bf 9f38 dbbe 37a6 97be
00000150: 2f21 673e c40a 2a3f 4b38 77bd e3bc cdbe
00000160: f38a 933e d0e0 b93e f68c 38be f362 78be
00000170: 1c66 7abe 9285 9f3e 10be 20bf 2ca2 e3bc
00000180: acb5 7bbd a920 20be b43d f73d 48a0 21bf
-0.045183487 -0.093038104 -0.45746174 0.42251784 0.2856926 0.38009623 -0.2734371 0.5593187
-0.40791416 -0.4333805 0.06237161 0.40671214 -0.28844225 0.20795755 0.12408845 -0.023276368
-0.36077207 -0.07434869 -0.46510863 0.08179919 -0.17666523 0.099968776 -0.5620683 -0.013558805
0.16639802 0.00853536 -0.25445285 -0.26377136 0.04608245 0.32554787 0.08545623 0.44721305
0.14411022 0.22264986 0.5959997 -0.23802239 -0.27885288 0.6499487 0.44777244 0.3409662
0.039419703 -0.54332054 0.44733453 0.3449975 0.04380786 -0.34015098 -0.34863555 0.36277625
0.30762318 -0.16619423 0.14020747 -0.17132702 -0.31569505 0.33474138 0.2798776 -0.22166856
-0.4843324 -0.103746794 -0.45630103 0.06080856 0.50485224 -0.20402619 0.029670449 -0.5116628
-0.76551753 0.32146385 0.3442487 -0.09027341 0.14798431 -0.5329906 -0.8202477 -0.32373685
-0.6368674 -0.80607873 -0.33658287 -0.6730074 -0.08905654 0.1849547 -0.110425934 -0.25229427
0.26590174 -0.5260277 -0.42816636 -0.29619 0.22571252 0.6642268 -0.06035642 -0.40183172
0.28816947 0.3630433 -0.18022522 -0.24256496 -0.24453014 0.31156594 -0.6279001 -0.02778729
-0.061452553 -0.15637459 0.12072316 -0.63135195

model.2.weight f4 [100, 100]
00000000: c6cc e6be 855f b63d fbd2 783e 5a1b 2ebd
00000010: 1d94 5ebd 3bcc c9bb 9332 9b3d e742 cfbe
00000020: 9bd8 93be 1816 b53d c1e0 6abf 30b8 6a3d
00000030: 72d2 3a3e 47d7 8dbe d45e 233e b577 6abd
00000040: 66ee d33d 7288 33bf acc7 803e 8f20 13be
00000050: c322 efbe 39ff 87bd a2ef 56be e7ed 323e
00000060: 0597 f03d d252 d1ba 7ff2 a8bd 839a 1d3e
00000070: f448 2dbf a6dc 3d3e 8454 fabb a126 053e
00000080: c968 8e3e 2f50 253d 6a4a e7bd 4657 8bbe
00000090: d6ca debe 011b b6bc bd75 183d c12f b6bc
000000a0: e17b 8cbe 34af 0c3f 0fa8 fdbd a31b b73d
000000b0: 4d9b e43d fcbe 033e 1d09 1a3e eab5 f53d
000000c0: fb0f 793c a845 093e 6d26 87bd 1bf8 16be
000000d0: e7dd dc3c 0516 6dbd ee78 a33d 51e0 003e
000000e0: 26ed 0f3e 9a86 a7be 21cd f63d 38a7 2abe
000000f0: 722c 843c fe59 913c 9aec 503e c74e 993e
00000100: 9f13 99be ae85 463b 8fe8 f8bc ed67 553e
00000110: 216b 04be 4c34 9abf e895 adbe 6b8b 77bd
00000120: 1a79 833e 88a5 cfbe a773 e13d 1381 be3d
00000130: 4e0e a83d ef5b bcbd a254 263e 34ec 933b
00000140: fe94 c03c 2911 7dbf 0727 21bf b70a 97be
00000150: c13b fdbc e493 343d cdb2 d13c cb74 663e
00000160: c355 4ebe 6ac6 033e 1632 74bd 7732 0f3c
00000170: 7223 41be 1750 cc3d 36e6 24bf ef8a 2cbd
00000180: 1f3e 813e 5800 97be 7152 253e 0b24 5ebe
00000190: ca15 62bd 5f66 903d 7dac c3bd 9a65 61bb
000001a0: ba9e b1bd bbb9 aabd 275f e2bc d0c1 aebd
000001b0: 0711 d93c 8d66 12bc 028c bfbd 20a9 a6bc
000001c0: 90aa 5dbd a0fa 71bd 67fe 533b e7d4 56bd
000001d0: 9aa0 c2bb 9a0f 9f3b 6dc4 fcbc a075 02bd
000001e0: b563 aabd 1078 923d a7fa c33d c5cc a0bd
000001f0: 33ec 4e3c 130f 923c 4d61 8e3c 27b9 9f3d
00000200: a715 21bc 4789 d7bc 53fe fa3c 5533 acbd
00000210: 27ce bb3c 3ab3 5e3d b72c 9a3d 2d90 8b3d
00000220: 9a08 8bbb 0dce 50bc dd73 0f3d 6d76 93bd
00000230: 4591 b0bd 508f 943d 6a9c a33d a765 b6bd
00000240: 5843 c7bd 0d51 253d 8023 bc3b 67a2 be3a
00000250: f8a1 9fbd 731e 233c 471b 94bc f357 a1bd
00000260: d28f a4bd d329 a8bc 9a7b 3e3b 3d06 39bd
00000270: da7f 26bd 9a0b 61bd 9a3b 863d 7b9f b8bd
00000280: e0ba 90bd 9734 b23d 336a 973c da00 00bd
00000290: 6d69 a6bd 7d58 93bd 531f 86bc 5305 5f3d
000002a0: 9da9 ad3d 07fb d13c b3cc 643c da09 2cbd
000002b0: 8843 803d 4f0f 97bd a839 93bd 1dc1 c8bd
000002c0: 3a7a 0b3d 2da2 f7bc 5374 b3bd 8da1 c6bc
000002d0: e55a 8e3d 8356 69bd 800c ad3c 47c3 763d
000002e0: 3336 13bb 9330 8ebc 0a90 663d 1a70 903b
000002f0: 8393 943d 85c8 bebd 6a42 1bbd 6d83 2bbd
00000300: ad83 70bd f7cb 08bd 9370 d7bc ed30 133d
00000310: 1a6e c13d f342 9dbd 277c cabd 0d16 01bd
00000320: e098 ac3d 539c d53c 6f10 103e 8e42 783d
00000330: a6aa cebc c914 443d 4ddf 8cbc 5793 2bbe
00000340: 38e2 e2bd 1aa8 993b 71fd a2be a69f 243c
00000350: 9f6d 57be 378b 143d b726 a03c 60c9 8e3d
00000360: 8f8b b4be 0d15 30bf daec 023d 6304 fd3d
00000370: d7b5 b3be e920 c03d bbb5 793e ff05 213d
00000380: 8e47 813d 5592 cbbd 56cb 163c 340d 6ebe
00000390: d760 f5bd d46f 4cbd 66dc 103e d7a9 8f3d
000003a0: 40bf eabb 5213 0e3e 8075 33be 4b27 a4be
000003b0: 6779 f7be 6dea 57bd 63a8 08bd 99d2 d13d
000003c0: b15c b33d cd1c 09be c3ae 95bd c3a3 f33d
000003d0: 7afe 4fbe be43 d23d b5db 86ba 4132 02bf
000003e0: eeb8 793d c9f1 d83d cbb7 873d 17a2 683c
000003f0: 1c4a 68be 2be9 7fbd c80f 2bbc caa5 423d
-0.45078105 0.08904938 0.24299233 -0.042506553 -0.05434047 -0.0061583794 0.07578006 -0.4048073
-0.28876194 0.08842105 -0.917492 0.05730456 0.18244341 -0.27703306 0.15954143 -0.057243068
0.10348205 -0.70130074 0.25152338 -0.14367889 -0.4670621 -0.06640477 -0.2098985 0.17473565
0.11747555 -0.0015970117 -0.082493775 0.15390973 -0.6768944 0.18541202 -0.0076394696 0.13003017
0.2781432 0.040359672 -0.1129349 -0.27215022 -0.43514127 -0.022229673 0.03722166 -0.022239568
-0.27438262 0.5495484 -0.1238557 0.08940818 0.11162434 0.12865824 0.15042539 0.11997588
0.015201564 0.13405478 -0.06599126 -0.14743082 0.02696128 -0.057882328 0.0798205 0.1258557
0.14055309 -0.3271988 0.12050844 -0.16665351 0.016134474 0.017743107 0.20402756 0.29942915
-0.29897782 0.0030292082 -0.03038433 0.20840426 -0.12931491 -1.204721 -0.33903432 -0.060435694
0.2567833 -0.40555978 0.11008387 0.09301963 0.082058534 -0.091972224 0.16243222 0.0045142416
0.023508545 -0.9885431 -0.62950176 -0.29500362 -0.030912282 0.044086352 0.025597954 0.2250549
-0.20149903 0.12868658 -0.05961808 0.008740059 -0.18861178 0.099762134 -0.64413774 -0.042124685
0.25242707 -0.2949245 0.1614473 -0.21693437 -0.05519656 0.07050776 -0.09554384 -0.0034392835
-0.08672853 -0.083362065 -0.027633263 -0.085330606 0.026497377 -0.008935583 -0.09352876 -0.020344317
-0.05411774 -0.059076905 0.003234768 -0.052449133 -0.0059395554 0.004854155 -0.030855382 -0.031850457
-0.08319799 0.07151806 0.095692925 -0.07851557 0.0126295565 0.017829454 0.017380381 0.07798987
-0.0098318225 -0.026310576 0.03063885 -0.08408228 0.02292545 0.054370143 0.0752806 0.06814609
-0.0042429687 -0.012744439 0.035022605 -0.07200322 -0.08621458 0.07253897 0.07988818 -0.089061074
-0.09729642 0.0403605 0.0057415366 0.0014544249 -0.07794565 0.00995599 -0.018079413 -0.07878103
-0.08035244 -0.020527756 0.0029065371 -0.045171965 -0.040649273 -0.054942705 0.06554337 -0.090147935
-0.070668936 0.08701437 0.018483257 -0.031250812 -0.08125577 -0.07194612 -0.016372358 0.054448437
0.08479617 0.025632394 0.01396482 -0.042001583 0.062628806 -0.07375967 -0.071887314 -0.098024584
0.03405211 -0.030228699 -0.087624215 -0.024246955 0.069509305 -0.05696727 0.021124125 0.060244825
-0.0022462725 -0.017357146 0.05628971 0.004407895 0.07254698 -0.0931559 -0.037905134 -0.041873384
-0.058719326 -0.03339764 -0.026298797 0.03593533 0.09444828 -0.07678785 -0.098869614 -0.03151517
0.08427596 0.026075518 0.14068769 0.060610346 -0.025227856 0.047871385 -0.017196322 -0.16755424
-0.11078304 0.0046892287 -0.31833985 0.010047829 -0.21037911 0.036265578 0.01954971 0.06972003
-0.35262725 -0.6878212 0.03196416 0.12354352 -0.3509967 0.09381277 0.24385731 0.03931236
0.06312476 -0.0994002 0.0092037525 -0.23247224 -0.11981361 -0.049911335 0.14146575 0.07014816
-0.007163912 0.13874558 -0.17525291 -0.32061228 -0.4833481 -0.0527138 -0.03336371 0.102452464
0.08757914 -0.13389893 -0.07308724 0.118964694 -0.20311919 0.10266827 -0.0010288866 -0.5085793
0.06096738 0.10592992 0.066268526 0.0141988015 -0.2268452 -0.062478226 -0.010440774 0.04752139

model.2.bias f4 [100]
00000000: b05b 173d 079f 4a3d 3612 393d 0158 c4bd
00000010: 8c3c e9bd 7ca1 073e ae87 d1bd 6132 683d
00000020: 8707 eb3d 7979 bebc 883b 9d3d 3aa9 aabe
00000030: e232 313e 9309 a53d 4668 3f3e b9cd 083e
00000040: 1d2b cd3d a5d1 003e 4a4f f33c 4dea 5c3d
00000050: fe74 7cbe 0dbe 743d e280 ba3d f687 a13d
00000060: 765c 133d 2e0c f7bc 68e9 4b3d a995 913d
00000070: f1b7 b23d 7168 64be 92d3 17be eb8e fbbc
00000080: aa10 ee3c 04ec d83d be49 d03d d08f 363e
00000090: 2fd0 473e 175f 433c c674 63bd d865 053e
000000a0: dd44 9a3d 794c 66bd 390c 2bbe 89e1 023e
000000b0: 2128 37be 52c4 da3d e287 383b 5df8 263d
000000c0: 2ebb debd 9958 a83d 1eb5 183d 3626 90bc
000000d0: 6a90 733c 092a 503d 1333 a7bd 0e78 c6ba
000000e0: 8c91 d63d 3a00 8fbd d8bc 2fbe 1814 edbd
000000f0: 5159 0c3c 45f4 233e 9745 433d be11 2abd
00000100: 1942 713d de63 1dbe 8fd8 2d3d 3aae d83d
00000110: 57b3 123e b175 8d3d 2d32 7f3e 372a 193d
00000120: a06b c43d 568f 1d3e 993e 2dbd 9040 e23d
00000130: 5896 253e e761 5cbd 383c b5bc 8b62 463c
00000140: 81f8 273e 2e74 28bc 9cf4 a1bd 127d 0a3d
00000150: 8d7d 1c3c 34d7 d8bd 1ae5 1abd e1fb b8bd
00000160: e001 34bd e518 4cbe 1ed5 063c 2bbc 41be
00000170: 80d7 0dbe 2429 a0bb 4209 c93c 9ed3 2ebe
00000180: 461a 263c 3be2 34bd da6d 6cbd b13b 483d
0.036952674 0.049468067 0.045183383 -0.09587098 -0.113885015 0.13245195 -0.10230957 0.05668867
0.11476045 -0.023251282 0.0767737 -0.33332235 0.17304567 0.08058467 0.18692121 0.13359727
0.10017989 0.12579973 0.029700894 0.053934384 -0.24654004 0.05975156 0.09106614 0.078872606
0.03597685 -0.030157175 0.04978314 0.071086235 0.0872649 -0.22305466 -0.14826801 -0.030707797
0.02906068 0.105918914 0.10170315 0.17828298 0.1951301 0.011924527 -0.055531286 0.13027132
0.07532666 -0.056225274 -0.16703881 0.12781347 -0.17886402 0.106819764 0.0028157164 0.0407642
-0.108755454 0.08220024 0.0372821 -0.017596345 0.014865974 0.050821338 -0.081640385 -0.001514198
0.104769796 -0.06982465 -0.17161882 -0.11576098 0.008566217 0.1601115 0.047673788 -0.041520827
0.058900926 -0.15370128 0.042442854 0.10580106 0.14326225 0.069072135 0.24921484 0.037393775
0.0959084 0.1538671 -0.042296026 0.110474706 0.16170633 -0.053804304 -0.022123441 0.012108455
0.1640339 -0.010281606 -0.07907984 0.033810683 0.009551418 -0.10587922 -0.037816145 -0.09032417
-0.0439471 -0.19931372 0.008229522 -0.18919437 -0.13851738 -0.004887717 0.024540547 -0.17072913
0.0101381 -0.044161063 -0.05772195 0.04888505

model.4.weight f4 [1, 100]
00000000: 0725 23bf 203d bd3c de4c 3b3e 3faf 1a3e
00000010: eab3 2c3f 74e1 40bf 4a9c 25bd 2d3c 8f3d
00000020: f4eb e23e bd8a 483d 0e2a 66be e8e3 943f
00000030: b63e 783e 7ab9 093f 43cd a73e 4454 8c3e
00000040: 36a5 703e dfaa 62bf f3e2 273e 7e1e 1fbd
00000050: 0bef 8abf c318 00be 554d 8dbc f314 2abd
00000060: b0fb d2bd 2560 b43e e378 11be f5d9 02bf
00000070: 4deb 38be 85ff 653f d582 073f 4135 933e
00000080: a3d6 273e c467 db3e 2d56 69be 96a4 173e
00000090: 9821 833e cc37 f3be a157 3ebe f33f 3e3e
000000a0: e306 153b 15f2 e43d 68b0 09bf 39f0 31be
000000b0: da18 e4be ea9d 083e 91a7 febc 410c 12be
000000c0: dac1 943d 3d3a 8cbe 4250 b73e 7ddc 263f
000000d0: 6390 b5be d5c3 1b3e 9cdc 90be ab4b 20bf
000000e0: 1c2f a1bd 92d7 353f b48d 753f 8c01 c8be
000000f0: c8c3 38be 03a5 3a3e b2a8 a93d a8cb 25be
00000100: 366d 00be 07bc d43e ca34 3b3e 4e2b 1b3e
00000110: e918 3f3e bf1c d0be 6a0b dd3e 1720 febd
00000120: 9c30 873e e8f0 193e 8d69 1ebf 8e15 043e
00000130: 473c 3d3e 261b 893e 9623 afbd 061a 8f3d
00000140: 50ae 09bf 6b86 1ebf 8055 453c a2d4 723d
00000150: 54d0 813e 7096 91be 8ab1 7abd 3a0d c9be
00000160: a369 a1be afd4 3cbf 95b0 fd3e cd7f 13bf
00000170: c477 e83e d5df e43b 0e3b 2d3f c14d aabf
00000180: 9662 b33e 8ea6 b6be be74 01be 6705 583c
-0.63728374 0.023100436 0.18291041 0.15105914 0.6746203 -0.75344014 -0.040432252 0.069938995
0.44320643 0.048960436 -0.2247698 1.1632051 0.24242672 0.5379864 0.3277379 0.2740804
0.23500523 -0.8854198 0.16395168 -0.03884744 -1.08542 -0.12509446 -0.017248789 -0.041523885
-0.10301912 0.35229602 -0.14206271 -0.51113826 -0.1805851 0.89843017 0.5293401 0.28751567
0.16390471 0.42852604 -0.2278678 0.14808878 0.25611567 -0.47503507 -0.18588115 0.18579082
0.00227397 0.11178986 -0.537848 -0.17376794 -0.4455021 0.1334149 -0.031085761 -0.14262487
0.07263537 -0.27388182 0.3580342 0.6518019 -0.3546172 0.15211423 -0.28293312 -0.6261546
-0.078703135 0.7103206 0.95919347 -0.3906368 -0.18043435 0.1822701 0.08284129 -0.1619097
-0.1254166 0.41549703 0.18281856 0.15153238 0.18661846 -0.40646932 0.4317277 -0.124084644
0.26404274 0.15033305 -0.6187981 0.12898847 0.18480025 0.26778525 -0.08551709 0.069873855
-0.53781605 -0.61923856 0.012044311 0.059284814 0.25354254 -0.28435087 -0.06120447 -0.39267904
-0.31525907 -0.7376203 0.49548784 -0.57616884 0.45403874 0.0069846907 0.67668235 -1.3304979
0.35036153 -0.35673946 -0.1264219 0.013184882

exp_avg f4 [100, 5]
00000000: f07d 03b9 8c0d d8b9 3f69 c3bb 90e3 9838
00000010: 77dd 983a 48d8 5f3a d505 8aba f9e5 9cbb
00000020: 8a5f 403b a4e6 a33a ee7e a8ba 7913 6e3a
00000030: 56da 2cbb fd8a a63a 0c58 38ba a899 513a
00000040: 6445 dcba 2ee8 9f3b 667d 60bc d047 043c
00000050: 708d 1a3c b8ab 3cba 6e6f 1c3b 9840 1a3c
00000060: 1c9e e6ba 1943 293a 2456 f5b9 b09d 43b9
00000070: 049f 803c 14ca b93b 135c 38bb 5951 4a3b
00000080: 3ad3 4f3b 1e15 0dbc afe1 503c f0be ce39
00000090: 64f2 be3a ca6e 8cba 29e6 ec3a 0074 0934
000000a0: ae68 71bd 4e06 5fbc e175 dabc 92e0 d0bc
000000b0: 93ef a23c e58c 193c a8ca c239 941d 953b
000000c0: fc39 5e3b c594 6ebb 8055 edba 708e d6ba
000000d0: 48a4 8f3a f868 adbb 1dc0 e23b b35a b83b
000000e0: df82 a23a 7d9d 933b 62f5 003b 60bb 77ba
000000f0: 3614 21bc c3e5 383c f414 153b fc69 3dbc
00000100: 9ced 08bc 2f7d b1b9 f429 053b 13c3 86bb
00000110: a86a 63ba 4725 c5ba 14d2 c63b 9081 96ba
00000120: 60bd 123c 781e 13bc 6729 2f3c f089 163c
00000130: 702a 773b f084 0aba 9e17 e83b 98db 2bbc
00000140: 554f f3ba 9059 363b 0c34 433b 72d3 35bb
00000150: 945a 1dba acce 3dbd f39e 26bc 93ec a8bc
00000160: 970d b2bb b44c 093c a14b c93a bacf d039
00000170: 3af1 ab3a 94c3 9d3a 7cd2 b2bb 1b0b 1d3d
00000180: 4d19 0f3b e222 ce3c e42b 043c 2256 bfbc
00000190: f2d1 a5bb 28c3 51ba f059 10b9 25b4 80bc
000001a0: d849 8b3a d8bf 983a e212 a2ba 5019 8139
000001b0: ae8a c33b 34fc 23bb 90bb 173d a490 a93b
000001c0: d6b4 913c 6352 763c 9c2f a9bc ab88 9a3a
000001d0: 12cd aaba 9abf 2ebb 0031 ca3b 44ee ddb9
000001e0: db1e 3f3a 869e 613b 24e0 52bb eab6 123c
000001f0: 6c5a e8bb 2dc3 d2bc f252 fcbb e0ef f1b9
00000200: 3f02 bcbb 9cc0 213b 825b 4bbc 80f5 0a3c
00000210: 084a 0c3c bf20 35bc 7834 0d3c fca1 233a
00000220: 964f ef3b 40ad dcb9 54ea 5abc 7828 85ba
00000230: ae08 803b 8522 a23b 504e d43a b942 83ba
00000240: 8c40 3ebb 7230 1dbd c1d1 8abc 0820 74bb
00000250: 465d babc d21f ac3c 8c9d 3c3c b400 303a
00000260: e463 0a3a aa8a 0d3c 6f17 08bc c094 f13b
00000270: 1cdf 753a c811 1cba 6c13 2b3c 70b1 1ebc
00000280: fa9d b43b 98ff a739 877e 353c f071 c2ba
00000290: 208a 2f38 d9b3 573c 120e a53a 5cb2 373b
000002a0: 67a6 c13b 1e72 03bc 8a0e f0b9 e424 113b
000002b0: 9957 3c3b 1cfb b93b e9d3 033c 939a ccbc
000002c0: c148 0bbb 84a6 3fbc 0c69 a9bb 78c4 af3b
000002d0: 049d 55bd bfe4 a3bb 6202 84bc daca c1bc
000002e0: 18b4 7b3b 422a bcbb 3409 353c 6098 10bb
000002f0: 5fc1 8f3b 0c37 4ebb 1fdf 43bb 18ed 953b
00000300: aa15 81bb 624f 6c3b 0258 a53a 32ba cebc
00000310: b8fb 13bb 0ad8 40bc 1c42 87ba 9001 5ab9
00000320: bae3 0fbb b115 273c be27 083c d53f 6f3c
00000330: 56d7 013c 20b0 a3bb 14b6 913c 76e3 f43c
00000340: f805 943b eb8b bf3c 5087 9d38 e0d2 fa3a
00000350: 5c1c 19ba e61c 543b 3883 a33b 369b 56bb
00000360: fe14 b4bb 76b1 2bbb 60cf 7e38 7676 0a3b
00000370: eaad 73bb 35e6 40bb eb68 fc39 0c91 35ba
00000380: 202b 58b9 81ae 983b df85 43bb bfe4 4e3c
00000390: e4ef c5bb 9701 9c3c 9f9d 283a cebf bc39
000003a0: 9f7a adbb 9298 8cbb 2274 c03a b68d 28bd
000003b0: ee55 01bc 06a5 9abc bff3 99bc f2b1 323b
000003c0: b061 43bd 7672 f2bb 76c0 a3bc 733e dbbc
000003d0: c48f bd3c 0473 e33a 75fa a0bb da1f 1eba
000003e0: cd37 7bba 2ed0 d63a 00b6 d63b a137 0d3b
000003f0: 7432 953a ba95 003c e28d fbbb 86c4 ec3b
-0.00012540049 -0.00041208824 -0.005963474 7.2903116e-05 0.0011662681 0.00085390033 -0.0010530303 -0.004788157
0.002935382 0.0012504649 -0.0012855211 0.0009081881 -0.0026375256 0.0012706217 -0.0007032163 0.0007995614
-0.0016805348 0.004879973 -0.013701772 0.008073762 0.009433135 -0.0007197219 0.0023870128 0.009414814
-0.0017594728 0.00064568367 -0.0004679422 -0.00018655392 0.015700825 0.0056698415 -0.0028131052 0.003087124
0.0031711594 -0.008610992 0.01274912 0.0003943364 0.0014568088 -0.001071417 0.0018073964 1.280132e-07
-0.05893772 -0.013612343 -0.026667537 -0.025497708 0.019889629 0.009371971 0.00037153554 0.004550645
0.0033909073 -0.0036404592 -0.0018107146 -0.0016369354 0.0010958994 -0.0052920543 0.0069198743 0.0056260466
0.0012398622 0.004504858 0.001967751 -0.00094502233 -0.009831479 0.011285248 0.0022748085 -0.011560913
-0.008357432 -0.0003385334 0.0020319195 -0.00411261 -0.0008675256 -0.0015041017 0.0060675237 -0.0011482704
0.008956283 -0.008979432 0.010691023 0.00918816 0.0037714504 -0.00052840915 0.0070828935 -0.010489367
-0.0018563071 0.002782438 0.002978566 -0.002774444 -0.0006002572 -0.046339676 -0.010169732 -0.02062062
-0.005433749 0.008380104 0.0015357622 0.0003982762 0.0013118156 0.0012036436 -0.0054572206 0.03834067
0.0021835149 0.025163118 0.008067105 -0.023356501 -0.005060428 -0.0008001798 -0.00013766414 -0.0157109
0.0010626866 0.0011653854 -0.0012365247 0.00024623657 0.0059674596 -0.002502215 0.037044108 0.005174713
0.017786425 0.015034291 -0.020652585 0.0011789998 -0.0013031086 -0.0026664496 0.006170392 -0.00042329927
0.00072906696 0.0034426763 -0.0032177055 0.008954743 -0.0070908573 -0.025727833 -0.0077003175 -0.00046145823
-0.0057375724 0.0024681455 -0.012411954 0.008481383 0.008562572 -0.011055171 0.008618467 0.0006242094
0.0073031886 -0.0004209075 -0.013361532 -0.0010159155 0.0039072847 0.0049479627 0.0016197655 -0.0010014392
-0.0029030172 -0.03837628 -0.016945722 -0.0037250537 -0.022749554 0.021011267 0.0115121715 0.0006713972
0.0005279167 0.008639017 -0.008306368 0.0073724687 0.0009379254 -0.00059535773 0.010441642 -0.009685859
0.0055119963 0.00032043154 0.01107753 -0.0014834981 4.185189e-05 0.013165438 0.0012592694 0.0028029894
0.0059097293 -0.008022813 -0.000457872 0.0022147233 0.0028738736 0.0056756865 0.008046129 -0.02497605
-0.0021253082 -0.011697415 -0.0051699933 0.005363997 -0.052151695 -0.005001634 -0.016114417 -0.023656297
0.0038406905 -0.005742342 0.0110495575 -0.0022063479 0.0043870653 -0.0031465916 -0.002988763 0.004575383
-0.00393935 0.0036058058 0.0012614729 -0.02523527 -0.0022580456 -0.011770258 -0.0010319385 -0.00020790682
-0.0021955804 0.010198043 0.0083102565 0.014602621 0.007924875 -0.004995361 0.017787017 0.029893618
0.004517313 0.023382148 7.511547e-05 0.0019136332 -0.00058407127 0.0032365858 0.0049900077 -0.0032746322
-0.0054956665 -0.0026198304 6.0751452e-05 0.0021127737 -0.0037182518 -0.002943409 0.00048143356 -0.0006926216
-0.0002061543 0.0046594744 -0.0029834432 0.0126277795 -0.00604056 0.019043727 0.0006432179 0.0003600106
-0.0052941586 -0.0042906487 0.0014683048 -0.04115077 -0.007894022 -0.018877517 -0.018792985 0.0027266708
-0.047700584 -0.0073988987 -0.019989233 -0.026763177 0.023139842 0.0017353003 -0.0049126693 -0.0006031968
-0.0009583205 0.0016388947 0.006552458 0.002154805 0.0011382834 0.007848198 -0.007676826 0.007225576

exp_avg_sq f4 [100, 5]
00000000: f7fa 5237 3ec4 ad39 854b 2b39 c280 7939
00000010: 4875 9a39 f987 1637 4165 e838 1f02 1e39
00000020: 3dcc d938 96fb 0939 1eb0 cd3c 127e 8939
00000030: 930a ad3b b739 533a bb21 5a3a 52b2 3339
00000040: 17de 5d3a 04e7 103b fba4 db3a cb28 f33a
00000050: 1625 a53b 16e5 2639 5117 b03a e863 aa39
00000060: 8e13 b739 eabd f837 7c92 603a ac85 e739
00000070: ed6f 3a3a 72d0 3e3a 5e1d 223c c008 5b3a
00000080: 4ff3 2a3b 9916 433a 081d 993a 7d1e 0f37
00000090: 6d64 1639 c5ba d338 cb99 e138 72b2 ce38
000000a0: d000 553d be46 ad3a 2c56 2e3c 2b57 d73a
000000b0: 769b d43a 3d79 723a 964c 8238 e603 8639
000000c0: 80a6 ee38 2c64 ca38 86f3 bc37 6f7c 3e3a
000000d0: 8ff5 2a3a 898d 8b3a 1a0d 453a 6b00 123b
000000e0: 2e3a 8739 7e16 043a ba99 0139 f684 2e39
000000f0: 0c75 323c 388b 0d3c c4f7 d83b 80b0 4b3b
00000100: 5986 b93b ecce ed36 42f6 0639 58ed ba38
00000110: bb53 ca38 b242 1739 8e32 943b 4045 803a
00000120: 5278 ca3a 6938 7e3a a19a 7b3a f9c2 383b
00000130: 7a3d 7a39 c5ac 643a 8ed1 8a39 08a1 8939
00000140: 2690 a239 9208 d539 d54f 5739 6c2d 0239
00000150: 0044 3b39 d633 453d dd1e 993a 1fa8 1d3c
00000160: 6bab e43a 642a 633a 3629 043c 8808 b439
00000170: 1bec eb3a 1670 0d3a c627 343a 1117 313d
00000180: 9bab 873a 050d 2a3c 58ff f13a 6c0c 153b
00000190: 9b26 663b 9c5c cc3a 67ca c53a 0921 da3a
000001a0: 72f6 9e3a c81a 2238 dcee 173a 3f9d 073a
000001b0: 6682 f439 9710 293a e2a1 b33c 37f6 103b
000001c0: ad5c b13b e65a 983a 1af4 ea3a 11cd f937
000001d0: 1e04 213a d5fa 233a 93a5 063a fe44 f439
000001e0: dd50 1138 dc06 6639 c8a1 9c39 297c 8d39
000001f0: 1d8d 8c39 5e4a 203c 7792 833a d8ce 313b
00000200: b0a6 8e3a 99c4 773a 3fa9 0c3c 05a2 073b
00000210: c122 2b3b 4e8d 673a 8f3a aa3a e406 8339
00000220: 8ab9 4a3b cedb 153b 2201 c63a 0459 1c3b
00000230: 933b 1b3b f014 f938 8d5b 0f3a c41c e838
00000240: 856e 2f39 4972 c03c 0ff6 ba3a f898 e33b
00000250: 72c9 1f3b 1f4a 183b 78b1 5a3b 74be a039
00000260: 5ecb 763a 3e34 a839 a499 ae39 4255 883b
00000270: 2be8 e539 d133 9d3a c239 d339 0b47 e739
00000280: f9fc 763b fc12 7d39 e77a 933a 1ec6 fa39
00000290: 710d de39 95e1 083b 9934 1639 cc6e 0b3a
000002a0: 0c33 1439 faed 0639 6303 2138 d21b 893a
000002b0: d235 9139 d13a 6239 0e41 d139 9b4c 6d3c
000002c0: afc2 7f39 f11b 3f3b 9e5a bb39 4571 4a39
000002d0: 0f10 013d 4044 6e3b 8f72 e33b 9fbc b13a
000002e0: 120f b23a 0ffc d339 8049 1339 c6a4 4039
000002f0: 08c1 1f39 4de9 1c39 4f65 2439 81fd 2639
00000300: 6add 3b39 cc56 6e39 6c32 4339 eb7c f13a
00000310: 0084 3539 916c 0a3a 73a0 6e39 ab04 8139
00000320: 00c5 8338 653a 4e3a 2ece b03a caf5 a33a
00000330: e59c 973a 5c3f b539 13dd f33b 811b 883b
00000340: 55bc 063b 29c2 853b 7028 9d37 ce75 0a3a
00000350: 88a0 1339 54b3 1539 e198 5039 cddf d63a
00000360: a977 113a d90a fb39 7a58 2c39 dbd4 8339
00000370: a58c 923a 2f0e 4939 466e cd39 79a7 5d39
00000380: 5992 5339 dabe 583c 7b5a b23a fc8f 533b
00000390: 8a1e 333a ac44 be3a 8ab1 a437 c24f 093a
000003a0: fc6f 5839 917a 5d39 8e4a e139 b61d f63c
000003b0: 87cf ae3a 6ec6 d53b b06f a23a 0201 8d3a
000003c0: 5156 cb3c a0e6 c03a 8d36 d03b c8aa eb3a
000003d0: f624 e43a e309 de39 656a d538 b490 1339
000003e0: 7d4e a738 78f4 d538 eecd 0f3b bc5a 3339
000003f0: e445 273a a7dc 6639 4502 6b39 52b6 373b
1.2575408e-05 0.00033143343 0.00016335964 0.00023794457 0.0002946055 8.972355e-06 0.00011081482 0.00015068844
0.00010385409 0.00013159061 0.025108393 0.00026224606 0.0052808016 0.00080576114 0.0008321066 0.000171372
0.0008463575 0.0022110352 0.0016757542 0.0018551586 0.0050398214 0.00015916335 0.0013434683 0.00032499363
0.0003491905 2.965234e-05 0.000856675 0.00044159347 0.0007112015 0.00072789856 0.009894697 0.0008355491
0.0026084965 0.0007442027 0.0011681626 8.530563e-06 0.00014342526 0.000100960526 0.00010757482 9.8560835e-05
0.052002728 0.0013219935 0.010640662 0.0016429176 0.0016220647 0.00092496333 6.213148e-05 0.00025561376
0.000113797374 9.650769e-05 2.2524746e-05 0.0007266467 0.00065215764 0.0010647039 0.0007516906 0.002227808
0.00025792554 0.0005038752 0.00012359666 0.00016643465 0.010892164 0.008639149 0.006621333 0.0031080544
0.0056617674 7.0872393e-06 0.00012870974 8.91338e-05 9.6477066e-05 0.00014425328 0.004522628 0.0009786263
0.0015447235 0.0009697737 0.00095979316 0.0028192385 0.0002386476 0.00087232544 0.00026477542 0.00026250654
0.00031006447 0.0004063291 0.00020533738 0.00012414687 0.00017859042 0.048145138 0.0011682172 0.009622603
0.0017446106 0.00086656795 0.008066466 0.00034338632 0.0017999442 0.0005395425 0.0006872382 0.04323489
0.0010350825 0.010379081 0.0018462939 0.0022743 0.0035118225 0.0015591565 0.0015090228 0.0016641925
0.001212789 3.864875e-05 0.00057957857 0.0005173273 0.0004663646 0.00064493105 0.021927778 0.0022119412
0.005412659 0.001162377 0.0017925531 2.9778605e-05 0.0006142276 0.00062553334 0.0005136367 0.0004659071
3.4646004e-05 0.00021937065 0.00029875175 0.00026986122 0.00026808018 0.0097833555 0.0010038157 0.0027131345
0.0010883417 0.00094515976 0.008585273 0.0020695936 0.0026113244 0.0008833007 0.0012987423 0.000249914
0.0030933344 0.002286661 0.0015106539 0.0023856768 0.0023686632 0.00011877145 0.0005468659 0.0001106798
0.00016730472 0.023491995 0.0014264005 0.0069457255 0.0024381545 0.002323754 0.003336994 0.00030659477
0.00094144593 0.0003208238 0.00033302337 0.004160554 0.00043851262 0.0011993592 0.0004028809 0.00044112685
0.0037687405 0.00024135032 0.0011251838 0.00047831325 0.00042353154 0.002088641 0.00014324709 0.0005318939
0.00014133396 0.00012867889 3.8388545e-05 0.0010460562 0.00027696654 0.0002157495 0.00039912056 0.014483596
0.0002439122 0.0029160941 0.00035734934 0.00019306417 0.031509455 0.0036356598 0.0069411467 0.0013560242
0.0013584814 0.00040432854 0.00014046393 0.0001837193 0.00015235331 0.0001496423 0.00015677999 0.00015925431
0.00017916193 0.00022729783 0.00018615433 0.0018424069 0.00017310679 0.000528046 0.0002275722 0.00024608275
6.283261e-05 0.0007866978 0.0013489181 0.0012509164 0.0011567144 0.00034570217 0.0074421256 0.0041536693
0.0020559032 0.0040819836 1.8734689e-05 0.00052818365 0.00014078815 0.00014276552 0.00019893378 0.0016393602
0.0005549142 0.00047882533 0.00016436158 0.00025144857 0.0011180831 0.00019174138 0.00039182807 0.00021138591
0.00020177047 0.013229096 0.0013607288 0.0032281866 0.0006832859 0.0014516315 1.9632997e-05 0.000523802
0.00020641083 0.00021121862 0.00042970892 0.030043464 0.0013336994 0.006523899 0.0012392905 0.0010757747
0.024821432 0.0014717169 0.006354159 0.0017979974 0.0017406035 0.00042350506 0.00010176449 0.00014072919
7.9778e-05 0.00010202167 0.0021942812 0.00017104571 0.0006380959 0.00022016709 0.00022412192 0.0028032255

exp_avg f4 [100]
00000000: 207d 203a c6a4 8f3b 1427 af3b ab4e f9bb
00000010: 7807 4ebb da84 883a bca9 d6bb f1f5 6c3b
00000020: f85a 113c 68a2 bbb9 2d29 84bb 0e2c 3a39
00000030: f211 b5bb 0070 bcb5 6442 4bbc 98bc df3a
00000040: 48ce 8dba ecb6 383c 1e66 3dbb ba99 92bc
00000050: 2b0f 6cbc 1f31 a53b 9e66 04bc d239 aa3b
00000060: febd 163c 6315 03bc 28c4 50bc aa83 e13a
00000070: c5c5 81bb bda9 2dbc 0735 9d3b 29a5 ce3b
00000080: f136 d2bb 0898 f539 e0f5 87b8 9868 c43b
00000090: 888d 163c 6c69 113b 6035 f23b 3082 983b
000000a0: 4038 8d38 234d 86bc 60a8 53b9 d418 4b3b
000000b0: 08c1 5cbb 260a 65bc 86c8 fb3a 1f87 433c
000000c0: f8b7 1b3b 413d 833a 7a15 ba3b 085e 05ba
000000d0: 6cb6 6ebb eb5c 4b3c 6efb b7bb 6e43 d339
000000e0: 9472 3c3b bd3a adba 10ff 04bb 74ee bc3a
000000f0: cb04 fdbb 196f 2ebb b8c3 a1bc 2e5d 83bc
00000100: 1080 3fbb 1a78 f2bb 4e50 7c3b 21f2 143b
00000110: 007a c83a 47b2 ff3c e272 fdba f026 c1bb
00000120: f7f5 2ebb fef1 153b 62de f2ba 02fd fdbb
00000130: 3061 063b 0460 cb3b 76f9 f0ba 0af2 1bbb
00000140: 2ee0 73ba 2415 f3ba c449 adbb 82ce eb3c
00000150: a9e9 d33b 319f 7ebc 517c d83b c309 ac3b
00000160: 6289 093c 806b 3339 407f 4738 ac29 7d3a
00000170: 571d a8ba 48cb 0ebb a671 5cbb 8edb 2eba
00000180: 5cbd 5dbb 143c 27bb e775 1cbb 6a9d a03b
0.00061221607 0.004383656 0.0053452346 -0.007608255 -0.0031437557 0.0010415569 -0.0065509956 0.0036157335
0.008871786 -0.00035788422 -0.004033229 0.00017754754 -0.005525821 -1.4039688e-06 -0.0124059655 0.0017069755
-0.0010818923 0.011274081 -0.0028899978 -0.017895568 -0.014407913 0.005041256 -0.0080811065 0.005194881
0.009200571 -0.008000704 -0.01274208 0.0017205377 -0.0039603435 -0.010599551 0.004797581 0.0063063097
-0.006415241 0.00046843314 -6.4830994e-05 0.005993914 0.009189017 0.002218808 0.0073916167 0.0046541914
6.733881e-05 -0.016394204 -0.00020185253 0.003099014 -0.0033684392 -0.01397947 0.0019209541 0.011934071
0.0023760777 0.0010012762 0.0056788297 -0.0005087559 -0.003642465 0.01241229 -0.0056146896 0.00040295295
0.0028754817 -0.0013216358 -0.002029363 0.0014414326 -0.0077215186 -0.0026616512 -0.019746646 -0.016035642
-0.0029220618 -0.007399571 0.0038500014 0.0022727328 0.0015295148 0.031212939 -0.0019336606 -0.0058945343
-0.00266969 0.0022879834 -0.001852941 -0.007751108 0.0020504706 0.0062065143 -0.0018384892 -0.002379539
-0.000930312 -0.0018545729 -0.0052883346 0.028784994 0.0064670634 -0.015540884 0.0066066165 0.005250187
0.008394571 0.00017110817 4.7563808e-05 0.00096573937 -0.0012826127 -0.0021788646 -0.0033637076 -0.00066702894
-0.003383479 -0.0025517987 -0.0023873986 0.0049015777

exp_avg_sq f4 [100]
00000000: 6acf 8039 92f6 1f39 e403 823a 726c 363b
00000010: 0480 f539 2f99 543a 4c15 803a 848c 0839
00000020: e70d f73a fcdc f738 111c 6a3a 5182 2839
00000030: 6c4a ca3b 4f72 f438 4916 963a d834 ce39
00000040: aaba 4d39 9561 dd3a 50ea e739 71b4 423b
00000050: 8f30 d53a ebf3 043a 7ea5 ee3a 2bff 353a
00000060: c2f1 da39 1eaf b23a ec12 c63a f412 313b
00000070: 8e27 3239 cc26 723b b009 e139 8404 303a
00000080: 2725 0c3a 7fa6 3539 8375 e839 e91e f939
00000090: ce22 023b 96d8 3039 92b2 5b39 639b 8c39
000000a0: 6dd2 e43a 8a05 743b 3437 7539 6076 8b39
000000b0: a4cd 7639 5ea7 983a 8e3e 9539 72e2 c83a
000000c0: 414d 223b c2a5 bc38 f7ad 9739 30a3 9539
000000d0: af50 6a3a a371 353a b251 b139 3f90 cb38
000000e0: 9734 9738 8f2a 0339 8351 ab38 79e6 0a3a
000000f0: cb8f 1f3b 0eca b139 4ed1 b83b 1d8e 3f3b
00000100: d420 b339 cceb 6e3a 04da fa38 fea1 7a39
00000110: 5de7 1c3a 1e50 903b 280c 1f3b 391b 903a
00000120: dfd8 3439 0e15 993a fe72 c638 65ea d339
00000130: 0e31 673a 499d df39 aabc b438 1f80 3f3a
00000140: 6be3 2d39 eef8 ad39 9a6a 5a3a 3fa5 a43b
00000150: b625 453a c931 ce3b 3f11 c83a 1260 8139
00000160: 3efc 0c3b 2c38 a13b b53d 9a39 9118 b538
00000170: 9fb6 2638 e01f 1539 e7d2 0c3a cd94 b738
00000180: ad1b 7439 640a 513a 361e 3839 2d5d 6239
0.00024568598 0.00015255276 0.0009919372 0.0027835635 0.0004682542 0.00081099843 0.0009771972 0.00013022317
0.0018848748 0.00011819039 0.0008930574 0.00016070275 0.0061734226 0.00011656118 0.0011450733 0.00039330753
0.00019619861 0.0016890044 0.0004423433 0.0029709602 0.0016265082 0.0005071747 0.001820728 0.0006942625
0.00041760324 0.0013632511 0.001511184 0.0027019354 0.00016990138 0.0036949394 0.00042922562 0.000671454
0.00053461123 0.0001732353 0.0004433804 0.0004751601 0.001985717 0.00016865353 0.0002095199 0.00026818653
0.0017457731 0.0037234747 0.00023385586 0.00026600342 0.00023536995 0.0011646559 0.00028466102 0.0015326275
0.0024765285 8.9954134e-05 0.00028930578 0.0002854108 0.00089384144 0.0006921535 0.0003382094 9.706662e-05
7.210037e-05 0.00012508988 8.169098e-05 0.00052986253 0.0024347182 0.00033910613 0.0056401854 0.0029228993
0.00034166 0.0009114116 0.000119615375 0.00023902205 0.00059854035 0.004404082 0.002426872 0.0010994441
0.00017246928 0.0011679248 9.462795e-05 0.00040419694 0.00088192604 0.0004265106 8.61821e-05 0.00073051633
0.00016583285 0.00033182598 0.0008331925 0.0050245817 0.0007520573 0.006292556 0.0015263929 0.00024676375
0.0021512653 0.0049200263 0.00029419144 8.6353284e-05 3.9747563e-05 0.00014221622 0.0005372003 8.753836e-05
0.00023279963 0.00079742656 0.00017558862 0.0002158775

exp_avg f4 [100, 100]
00000000: 1e1e b5ba ab11 14bb e7b9 52bb c154 09bb
00000010: 1e89 32bb e7c6 84bb 9173 12bb a0c3 d7ba
00000020: fefe 9cba a4ee 0cbb e593 73ba 91e0 e5bb
00000030: afc5 86ba f04e 89ba 48f3 bebb 2cb5 98ba
00000040: 797c d5b7 e5c7 e6b3 a499 c9b8 7ac2 3ebb
00000050: 104f 53b6 685a 82bb 4485 5b39 5492 a9bb
00000060: b337 9ebb d4ed 0fbb 8f9f bc38 4bc8 63ba
00000070: e26f 9239 cbcf abbb 2777 f3ba b36b 82bb
00000080: e8e0 26bb f687 cebb c8c3 60bb 78b3 6138
00000090: 6b0d 8837 50ed 57bb 48f5 37bb b5db 84bb
000000a0: 7584 4ebb b31a 9c39 75e1 abba acf4 a1bb
000000b0: 9526 01ba 477b f9ba f258 acb9 2622 b3b9
000000c0: 63f4 dbbb 1046 2bbb 1169 42bb 9654 25b9
000000d0: f904 beb7 e550 43bb 8b50 29bb 38fe 87bb
000000e0: 78c2 aab9 a20b 1d38 16ca b6b9 081c 8cbb
000000f0: 8819 b9bb abc7 0fba d84c 66bb 6c26 10bb
00000100: 2fe7 50b9 4549 55bb 114f 2cbb 2882 60bb
00000110: f932 a1bb b93e c7b9 e97c 58ba e1fe 89ba
00000120: bd00 9ab9 8f7f 1aba cf71 52ba 070c b2ba
00000130: b86c 56ba 11a0 dbba cd03 d0ba f0a7 a7bb
00000140: 14e7 01bc 67b1 15b9 1513 b9b8 0a4e 06bb
00000150: 957e 53bb 03cd 20bc ec4a 1eba 02a5 c7ba
00000160: bb79 b2bb 18e8 2cbb bccc d3ba f0ff 80bb
00000170: 99b9 eb38 3bf7 eebb 5e39 55ba 38f8 a4ba
00000180: 68af 20ba 7835 5bba 4459 85bb 19bf 8638
00000190: 0000 0000 0000 0000 0000 0000 0000 0000
000001a0: 0000 0000 0000 0000 0000 0000 0000 0000
000001b0: 0000 0000 0000 0000 0000 0000 0000 0000
000001c0: 0000 0000 0000 0000 0000 0000 0000 0000
000001d0: 0000 0000 0000 0000 0000 0000 0000 0000
000001e0: 0000 0000 0000 0000 0000 0000 0000 0000
000001f0: 0000 0000 0000 0000 0000 0000 0000 0000
00000200: 0000 0000 0000 0000 0000 0000 0000 0000
00000210: 0000 0000 0000 0000 0000 0000 0000 0000
00000220: 0000 0000 0000 0000 0000 0000 0000 0000
00000230: 0000 0000 0000 0000 0000 0000 0000 0000
00000240: 0000 0000 0000 0000 0000 0000 0000 0000
00000250: 0000 0000 0000 0000 0000 0000 0000 0000
00000260: 0000 0000 0000 0000 0000 0000 0000 0000
00000270: 0000 0000 0000 0000 0000 0000 0000 0000
00000280: 0000 0000 0000 0000 0000 0000 0000 0000
00000290: 0000 0000 0000 0000 0000 0000 0000 0000
000002a0: 0000 0000 0000 0000 0000 0000 0000 0000
000002b0: 0000 0000 0000 0000 0000 0000 0000 0000
000002c0: 0000 0000 0000 0000 0000 0000 0000 0000
000002d0: 0000 0000 0000 0000 0000 0000 0000 0000
000002e0: 0000 0000 0000 0000 0000 0000 0000 0000
000002f0: 0000 0000 0000 0000 0000 0000 0000 0000
00000300: 0000 0000 0000 0000 0000 0000 0000 0000
00000310: 0000 0000 0000 0000 0000 0000 0000 0000
00000320: c0a0 89ba 9817 1339 be4c 003b b4e8 8c3a
00000330: cc9c a239 ae7e 093b e859 88b9 e524 cd3a
00000340: 1ca6 34b9 aee4 6c3a 0d39 143b 00bc a13a
00000350: f7d1 f439 4e47 2f3b 04f1 9a3b 39a1 88b9
00000360: 1d33 5c39 7464 e9b6 c666 26b8 47c7 933a
00000370: 92eb c139 30e9 083b daa7 8739 1ec3 ae3a
00000380: 4018 043b bbb8 39ba 29c9 293a f0e1 c239
00000390: 2821 a038 ab56 113b 6e53 143b 5e9d 773a
000003a0: 0362 063b 0999 1c3b 5cb0 2c3b e130 86b9
000003b0: abdf 96b8 9524 d338 a588 beba a2b9 2fbb
000003c0: fab7 903a 9846 6838 5c79 6839 da14 01b9
000003d0: bbf4 41ba a475 a93a bc68 18b9 24f3 42ba
000003e0: 00bb a437 3b8b ea3a 2827 28ba 0337 20b9
000003f0: f143 15b8 d2d4 fd3a 2cca 4b3b c9b4 063b
-0.001381818 -0.0022593539 -0.0032154263 -0.0020955058 -0.0027242373 -0.0040520313 -0.0022346715 -0.0016461499
-0.0011977849 -0.0021504546 -0.00092917524 -0.007015296 -0.0010282303 -0.0010475796 -0.005827341 -0.0011650673
-2.544954e-05 -1.074657e-07 -9.613045e-05 -0.0029107616 -3.148747e-06 -0.0039780624 0.00020935113 -0.0051749144
-0.004828417 -0.0021961825 8.994259e-05 -0.0008689209 0.0002793065 -0.0052432767 -0.0018574939 -0.003980124
-0.0025463644 -0.006302829 -0.0034296382 5.3811324e-05 1.6218712e-05 -0.0032947846 -0.0028069783 -0.0040545114
-0.0031512056 0.0002977453 -0.0013113456 -0.0049424972 -0.00049267086 -0.0019033932 -0.00032872666 -0.00034166983
-0.006712483 -0.002613429 -0.0029664675 -0.00015767137 -2.265208e-05 -0.0029802856 -0.002583536 -0.0041501783
-0.00032569817 3.744255e-05 -0.0003486431 -0.0042758025 -0.0056487955 -0.000548477 -0.0035141017 -0.0021995557
-0.00019922548 -0.0032544893 -0.0026292244 -0.0034257267 -0.0049194065 -0.0003800297 -0.0008258359 -0.001052823
-0.0002937372 -0.00058936415 -0.0008027823 -0.0013583907 -0.00081796525 -0.0016756078 -0.0015870273 -0.0051164553
-0.0079286285 -0.00014275835 -8.825042e-05 -0.0020493292 -0.0032271494 -0.009814504 -0.0006038386 -0.0015231671
-0.0054466403 -0.0026383456 -0.0016159038 -0.00393676 0.000112402435 -0.0072926558 -0.00081338536 -0.0012586182
-0.0006129653 -0.00083621545 -0.004069479 6.4252126e-05 0.0 0.0 0.0 0.0
0.0 0.0 0.0 0.0 0.0 0.0 0.0 0.0
0.0 0.0 0.0 0.0 0.0 0.0 0.0 0.0
0.0 0.0 0.0 0.0 0.0 0.0 0.0 0.0
0.0 0.0 0.0 0.0 0.0 0.0 0.0 0.0
0.0 0.0 0.0 0.0 0.0 0.0 0.0 0.0
0.0 0.0 0.0 0.0 0.0 0.0 0.0 0.0
0.0 0.0 0.0 0.0 0.0 0.0 0.0 0.0
0.0 0.0 0.0 0.0 0.0 0.0 0.0 0.0
0.0 0.0 0.0 0.0 0.0 0.0 0.0 0.0
0.0 0.0 0.0 0.0 0.0 0.0 0.0 0.0
0.0 0.0 0.0 0.0 0.0 0.0 0.0 0.0
0.0 0.0 0.0 0.0 0.0 0.0 0.0 0.0
-0.0010500178 0.00014027802 0.0019576992 0.0010750503 0.0003101587 0.0020980048 -0.00026006927 0.0015651254
-0.00017228018 0.00090367615 0.0022617013 0.0012339354 0.00046695743 0.0026745382 0.0047284383 -0.00026060062
0.00020999876 -6.9556354e-06 -3.96732e-05 0.0011274599 0.00036987342 0.0020890944 0.00025874266 0.0013333296
0.0020156056 -0.0007084717 0.00064768136 0.000371709 7.6355704e-05 0.0022176902 0.0022632736 0.0009445752
0.0020505197 0.0023894927 0.0026350236 -0.0002559489 -7.194219e-05 0.00010068078 -0.0014536573 -0.0026813527
0.0011041157 5.5378856e-05 0.00022170454 -0.00012310166 -0.00073988334 0.0012928736 -0.00014534866 -0.00074367435
1.9637402e-05 0.0017894277 -0.0006414526 -0.00015279283 -3.5587644e-05 0.0019365794 0.0031095846 0.0020554534

exp_avg_sq f4 [100, 100]
00000000: f69e 6c37 09ba c338 dcf5 7138 9eb2 5839
00000010: bddd 9c39 a2ef a739 eb46 c537 83e6 9737
00000020: b9eb a237 8784 8638 ce1a 4936 b128 ac39
00000030: 128d 3538 691e 6638 8506 5839 e2f8 5b38
00000040: fdef 5f33 b5db 3d31 4f20 1a34 012d c439
00000050: bb07 cd34 41ec 7338 6b5b 5d36 d509 2a39
00000060: 9973 3d39 5cbc 3d38 2dca 0738 f8c6 9737
00000070: d3c2 c835 7e52 d738 d973 8b38 8ec1 3839
00000080: 3d53 1d38 0898 dc39 3a15 8138 3801 c435
00000090: ab8a a935 703b 6638 ec2e 5838 acb5 f338
000000a0: bb5d 1138 0f23 3536 6172 b837 2fca dd38
000000b0: 6dcc d036 ae74 c638 93d0 4436 3a97 e536
000000c0: b240 3239 ccbe c738 c487 4f39 2073 fc36
000000d0: 57ed fb34 d3df 9f39 c40f af38 df25 3439
000000e0: 5048 1936 3fe9 8f36 1e5b 9e37 8897 ac38
000000f0: 6d34 0139 0296 9537 5e39 2738 ae13 5e39
00000100: 95ef 5d36 8fbe 7f39 de93 ce38 b79c 1339
00000110: e0ed c938 64d2 5435 17ef 4d38 00cb 8f36
00000120: 3270 1237 270a f736 4fdf 0038 9054 fb37
00000130: 8df6 8e37 a77d 3d38 530d 8f38 451e 3039
00000140: 0aa9 8839 d297 2a37 5f25 8b36 b519 b437
00000150: 59b9 9f39 4eb3 a539 ab89 0037 91cd b836
00000160: 94ba f438 5506 2b39 1150 1739 3e28 1439
00000170: a7a0 6236 5406 283a e258 0f37 32c8 6238
00000180: 1cef e336 5c5e 1e38 4c62 7338 b4c7 2835
00000190: 0000 0000 0000 0000 0000 0000 0000 0000
000001a0: 0000 0000 0000 0000 0000 0000 0000 0000
000001b0: 0000 0000 0000 0000 0000 0000 0000 0000
000001c0: 0000 0000 0000 0000 0000 0000 0000 0000
000001d0: 0000 0000 0000 0000 0000 0000 0000 0000
000001e0: 0000 0000 0000 0000 0000 0000 0000 0000
000001f0: 0000 0000 0000 0000 0000 0000 0000 0000
00000200: 0000 0000 0000 0000 0000 0000 0000 0000
00000210: 0000 0000 0000 0000 0000 0000 0000 0000
00000220: 0000 0000 0000 0000 0000 0000 0000 0000
00000230: 0000 0000 0000 0000 0000 0000 0000 0000
00000240: 0000 0000 0000 0000 0000 0000 0000 0000
00000250: 0000 0000 0000 0000 0000 0000 0000 0000
00000260: 0000 0000 0000 0000 0000 0000 0000 0000
00000270: 0000 0000 0000 0000 0000 0000 0000 0000
00000280: 0000 0000 0000 0000 0000 0000 0000 0000
00000290: 0000 0000 0000 0000 0000 0000 0000 0000
000002a0: 0000 0000 0000 0000 0000 0000 0000 0000
000002b0: 0000 0000 0000 0000 0000 0000 0000 0000
000002c0: 0000 0000 0000 0000 0000 0000 0000 0000
000002d0: 0000 0000 0000 0000 0000 0000 0000 0000
000002e0: 0000 0000 0000 0000 0000 0000 0000 0000
000002f0: 0000 0000 0000 0000 0000 0000 0000 0000
00000300: 0000 0000 0000 0000 0000 0000 0000 0000
00000310: 0000 0000 0000 0000 0000 0000 0000 0000
00000320: 8b64 5337 c3be b137 7a40 3038 5bb1 7438
00000330: 5150 bb38 19f7 9038 9d84 3637 304a 8e37
00000340: 72d2 5337 de57 0f38 a595 d336 7ad0 3c39
00000350: 407d 0837 0fb5 a837 1411 7738 353e 0f38
00000360: 16bf 4136 9341 7a35 980d cb34 7b65 e738
00000370: 1c61 9c36 6df2 1138 0139 0b36 05dc 1338
00000380: e22d 3838 ad9c ec37 326b 3f37 0d5c af36
00000390: dabb f236 9f61 8438 0515 0338 0e04 a438
000003a0: fee8 eb37 6c49 0f39 15fc 0438 b8d3 0036
000003b0: 50f3 cd36 6ee8 0e38 bbc7 c037 976e 3b38
000003c0: 1884 ed37 d284 b335 47fe 6f37 f4ee 4038
000003d0: 7575 ce35 1d39 9b37 8905 2c34 1f3f 4d36
000003e0: 47f5 9338 5682 a337 1641 0b39 c5f4 4f37
000003f0: e40c ff35 d2aa 9a38 9fbb d737 efd0 1838
1.4103707e-05 9.332976e-05 5.7687852e-05 0.00020665905 0.00029919847 0.00032031263 2.3517254e-05 1.8107943e-05
1.9421672e-05 6.414303e-05 2.9966936e-06 0.00032836714 4.3285145e-05 5.4864595e-05 0.00020601794 5.244546e-05
5.21395e-08 2.7628009e-09 1.4354121e-07 0.00037417564 3.818985e-07 5.8155743e-05 3.2984778e-06 0.00016216126
0.00018067508 4.5236535e-05 3.23748e-05 1.8093255e-05 1.4957863e-06 0.00010267364 6.649615e-05 0.00017619712
3.750924e-05 0.00042074942 6.155153e-05 1.4603493e-06 1.2631839e-06 5.489163e-05 5.1542112e-05 0.00011620982
3.4657987e-05 2.6991509e-06 2.1987771e-05 0.00010575761 6.2226813e-06 9.463109e-05 2.9327682e-06 6.842337e-06
0.00016999504 9.524598e-05 0.00019791635 7.5235876e-06 4.692508e-07 0.00030493605 8.347587e-05 0.00017180246
2.2840868e-06 4.2888855e-06 1.8877497e-05 8.229824e-05 0.00012321929 1.7832037e-05 3.986933e-05 0.00021178901
3.3071021e-06 0.00024389684 9.850388e-05 0.00014077393 9.6287346e-05 7.9282313e-07 4.909848e-05 4.2853644e-06
8.728401e-06 7.3623555e-06 3.072555e-05 2.996091e-05 1.7042528e-05 4.5178134e-05 6.821253e-05 0.00016795944
0.00026065885 1.0168138e-05 4.1468734e-06 2.1469643e-05 0.00030464938 0.00031604845 7.661448e-06 5.5075584e-06
0.000116695795 0.0001631019 0.00014430309 0.00014129371 3.3770136e-06 0.00064096344 8.544159e-06 5.4069045e-05
6.792963e-06 3.7758015e-05 5.802726e-05 6.2875483e-07 0.0 0.0 0.0 0.0
0.0 0.0 0.0 0.0 0.0 0.0 0.0 0.0
0.0 0.0 0.0 0.0 0.0 0.0 0.0 0.0
0.0 0.0 0.0 0.0 0.0 0.0 0.0 0.0
0.0 0.0 0.0 0.0 0.0 0.0 0.0 0.0
0.0 0.0 0.0 0.0 0.0 0.0 0.0 0.0
0.0 0.0 0.0 0.0 0.0 0.0 0.0 0.0
0.0 0.0 0.0 0.0 0.0 0.0 0.0 0.0
0.0 0.0 0.0 0.0 0.0 0.0 0.0 0.0
0.0 0.0 0.0 0.0 0.0 0.0 0.0 0.0
0.0 0.0 0.0 0.0 0.0 0.0 0.0 0.0
0.0 0.0 0.0 0.0 0.0 0.0 0.0 0.0
0.0 0.0 0.0 0.0 0.0 0.0 0.0 0.0
1.25999895e-05 2.1188875e-05 4.202172e-05 5.833931e-05 8.931815e-05 6.9124806e-05 1.0878922e-05 1.6962265e-05
1.2625578e-05 3.417569e-05 6.305711e-06 0.0001800674 8.135394e-06 2.0111473e-05 5.8905294e-05 3.415179e-05
2.8870468e-06 9.322768e-07 3.7821587e-07 0.000110338406 4.6604673e-06 3.479647e-05 2.0745795e-06 3.525244e-05
4.391175e-05 2.820635e-05 1.14094455e-05 5.2261225e-06 7.234031e-06 6.312434e-05 3.125241e-05 7.820885e-05
2.8122678e-05 0.00013664895 3.1706022e-05 1.9196723e-06 6.1378014e-06 3.4071905e-05 2.298119e-05 4.468727e-05
2.8314113e-05 1.3375195e-06 1.4304714e-05 4.599891e-05 1.538238e-06 1.8504035e-05 1.6020762e-07 3.0584122e-06
7.055193e-05 1.9491807e-05 0.0001328032 1.2395151e-05 1.9002732e-06 7.37511e-05 2.5717365e-05 3.643421e-05
